runs/20250608_160214/models/best_continue_train_model_at_epoch_196.pt (torch, 10569 bytes, 6 tensors)

net.0.weight f4 [60, 12]
00000000: 4e4d d43e f666 8abe 4133 3bbf c2d2 33be
00000010: 5b00 81bb 690c c3be ba41 cebd dbc2 c33e
00000020: 760b a63e 6317 1b3d 2ee1 df3e 8897 e63e
00000030: 4baf 7c3e e3d3 fb3e a8a7 c6bc 4d4b 3b3e
00000040: acba 133e 6af4 173f f046 b1be 47c3 f93d
00000050: 9482 24bf cc02 08bf edc7 85be 2311 e1be
00000060: 5537 203e 4e28 f23d 5bca 35bf 5a96 55be
00000070: a47e 833d c731 013e ba12 883e 8d92 123e
00000080: 1b81 883e ba46 d4bd eaeb 33be f7b8 103f
00000090: e4c9 4b3e deb6 e0bd 34de 9bbe 328a 24be
000000a0: 1921 2dbe 01d4 e63d 913f dcbe 89f6 053f
000000b0: a8cb fe3e ee5d 91bd b9e7 813e 8fd4 a83e
000000c0: 6bc7 843e 7c52 a93d e481 afbe 44df 2e3e
000000d0: adbb aabd ed59 c23d 5293 7a3e a1cc 963e
000000e0: 7c5d d03e e26f 483e 8436 9b3e 4884 c43c
000000f0: 128e b83e bbdf b33e 9b81 ee3e 1021 a7bd
00000100: f7aa 89bd 247a 2d3f 0253 b23d 875b e5be
00000110: 52f6 b0be fe36 aebe 6e5e 3fbc c4fd 4bbe
00000120: ddda cb3e 7603 183f 4234 263e 86fc 163e
00000130: b6db 303c 3d2d 1d3f c6a3 2e3e 993f eabe
00000140: 37f7 d7bc ec7b a13e 6e67 58be 1df7 c83d
00000150: d99e 8f3d 931a 8abd 7ebb 0fbe 0df2 293c
00000160: ecb6 cd3c a077 c63c 56a4 263e 3ede b93e
00000170: 410b fabe b685 00be 130f 003e 1cce ff3e
00000180: e9b4 833e b4b8 cabd 6dad acbe 982e 49be
00000190: 937d d8bd 674a 92be 6e61 7cbd 52d9 083f
000001a0: 6670 163e 6726 043e ca38 ab3e 8112 013e
000001b0: e3e8 2e3e f61d 923d cc11 a73e 95c8 13be
000001c0: 6008 5abe 02e8 bb3e 52fd 3cbe 6d56 f7be
000001d0: d0ec b7be 3109 59be d3a7 61be c0a4 3cbe
000001e0: 8a63 a43e 2b5d 2b3f bf5b 873e cd8b ac3d
000001f0: 5acb 02be 0d34 42be 9dc5 293e c710 d1be
00000200: 1035 12bd 5c61 96bd 0a95 8d3d e3ae 81be
00000210: def2 e53d 86db ea3d 66bc c13e 0979 893e
00000220: 599e ba3e d21e ae3e 7ba0 54be 2949 9fbe
00000230: 6f51 2abd cbf0 90be 170d d6be 1c39 89bd
00000240: e707 93be 6e56 b43e b34b 99be f0bb 12be
00000250: 02e2 afbe 964c b6be 0111 5ebe 0ea3 4bbe
00000260: 5b3a aebe ea8b 0bbe 9a38 0fbd 9b0d aabe
00000270: b16b c13e faa8 363f cab7 143e 761b fb3e
00000280: 9585 be3e 2f64 813e 895f 353e 9cbc 1a3e
00000290: 2c69 02bf f7ba 1b3d d010 dbbd 9983 abbe
000002a0: 0c8c ecbe 75d3 63be ea4f c5be fe5c 9b3e
000002b0: 2b61 813e 5724 f8bd 5128 32be 9609 9cbe
000002c0: afa7 093e 9c20 013e 7d21 98bc 6c95 df3c
000002d0: 545b b43d 6e38 853e 9397 86be cf0c b5be
000002e0: e19e 673e 7b2d 0fbf 772a c53e 1b74 5a3d
000002f0: 209b fbbe e4c6 99be 5077 c8bd 62c0 a5be
00000300: e366 843c 6522 0e3f 4930 cd3d bebe 5e3e
00000310: 2378 b3be d447 8dbe 02d8 293e 65f0 41bc
00000320: 4367 a8be 8fd7 973e 7f3d 973d c3be 933e
00000330: 26e2 063f 7f04 973c ef14 21bf c6fb 19bf
00000340: 1315 57be f218 cfbe 1e76 0bbf 2d15 44be
00000350: bd8e 4bbf 4ca1 1bbe e68b edbe d070 d73d
00000360: fcab 4d3e 8f4e a83e 53d8 21bf d0a5 c8be
00000370: 11e3 64bc c5e5 fabe 1cff 173e fa1b a6be
00000380: 8eab c33c 2961 da3e b189 e53c 711e ee3d
00000390: fac3 a13e b54d 07be 3645 d9be 8649 43bf
000003a0: db87 dcbd a5d5 b5be cea5 a5bd 1a9c f33e
000003b0: 30cd f73e 5ab7 0cbe 1ac0 3bbd f874 06bf
000003c0: c060 343e c608 5ebd 7c0b 43be 843e f5be
000003d0: a8bb e9be c01d 513e d1e2 d03e 8bcd 0c3f
000003e0: bf3f e13d 4ab8 f03d fef7 e63e 9596 0fbe
000003f0: 3a22 9a3e 2d2f c73e 9788 c43e c467 e13e
0.4146523 -0.27031678 -0.7312508 -0.17560866 -0.00393681 -0.38095406 -0.1007113 0.382346
0.3243062 0.0378641 0.43726486 0.45037484 0.24676244 0.49185094 -0.024249867 0.18290444
0.14426678 0.5935732 -0.34624434 0.12195449 -0.64261746 -0.5312927 -0.26129094 -0.43958387
0.15646107 0.11824094 -0.71011895 -0.20858136 0.06420639 0.12616645 0.26576787 0.14313717
0.26661 -0.103650525 -0.17570463 0.56532234 0.19901234 -0.10972379 -0.30442965 -0.16068342
-0.16907157 0.11270905 -0.43017247 0.5232931 0.49764752 -0.07097994 0.25372103 0.3297467
0.25933394 0.08267686 -0.34278786 0.17077357 -0.083365776 0.09489808 0.2447026 0.29452994
0.40696323 0.1957393 0.3031503 0.023988858 0.3604589 0.3513163 0.46583256 -0.08160603
-0.06722062 0.67764497 0.08707239 -0.44796392 -0.34562927 -0.3402633 -0.011680229 -0.19921023
0.39815417 0.5938028 0.16230872 0.14744768 0.010794571 0.61397153 0.17054662 -0.45751646
-0.026362998 0.31539857 -0.21133205 0.09812758 0.0701272 -0.0674335 -0.14036366 0.010372651
0.025111638 0.024226964 0.16273627 0.3630237 -0.4883671 -0.12551007 0.1250575 0.49961936
0.2572396 -0.098985106 -0.33726063 -0.1964668 -0.105708264 -0.2857239 -0.061616354 0.53456604
0.14691314 0.12905274 0.33441764 0.12604715 0.17081027 0.07134621 0.32630765 -0.14431985
-0.21292257 0.36700445 -0.18456009 -0.48308125 -0.3592286 -0.21194912 -0.22036676 -0.18422222
0.32107192 0.6693904 0.26437184 0.084251024 -0.12772885 -0.18965168 0.1657929 -0.40833113
-0.035695136 -0.073427886 0.069131926 -0.2532874 0.11227964 0.11467652 0.3783905 0.26850155
0.36448935 0.3400789 -0.20764343 -0.31110504 -0.041581567 -0.2830871 -0.41806862 -0.06700346
-0.28716967 0.3522219 -0.29940566 -0.14329505 -0.34352118 -0.35605305 -0.21686174 -0.19886419
-0.34028897 -0.13627592 -0.03496609 -0.33213505 0.37777475 0.7135159 0.14523235 0.4904439
0.3721129 0.25271747 0.17712225 0.15111011 -0.5094173 0.0380201 -0.10696566 -0.3349884
-0.46200597 -0.22248633 -0.38537532 0.30344385 0.25269446 -0.12116306 -0.17398192 -0.30476063
0.13442872 0.12610096 -0.018570656 0.02729293 0.08806482 0.26019615 -0.26287517 -0.35361335
0.22619201 -0.5592877 0.3850896 0.053333383 -0.49141788 -0.30034554 -0.09788382 -0.3237334
0.016162341 0.5552123 0.10018975 0.2175245 -0.35052595 -0.27593863 0.16586307 -0.0118371
-0.32891282 0.29656646 0.07384776 0.28856477 0.52688825 0.018434761 -0.6292257 -0.601498
-0.21004133 -0.4044872 -0.5447711 -0.19148703 -0.79514676 -0.15198249 -0.46395797 0.10519564
0.20085138 0.32872435 -0.6322071 -0.39189005 -0.0139701525 -0.49003425 0.1484341 -0.3244322
0.023885515 0.42652252 0.028019758 0.116269 0.3159483 -0.13213237 -0.42435616 -0.7628406
-0.107681 -0.3551456 -0.08088265 0.47580034 0.48398733 -0.13741818 -0.0458375 -0.5252223
0.17615032 -0.054207586 -0.1904735 -0.47899258 -0.45650983 0.20421505 0.40798047 0.55001134
0.10998487 0.117539 0.45111078 -0.14022286 0.30104238 0.3890318 0.3838546 0.4402448

net.0.bias f4 [60]
00000000: 1f7a 7f3f dfe5 d83e df41 3f3f 6973 533f
00000010: 5eee 343f 25e0 833c 577e 1e3f 6f2b 483f
00000020: 2714 5a3f db67 8bbe cd26 263f b5f4 473f
00000030: 72b8 44be 9e2b 0c3f ad07 8dbe 85e4 e33e
00000040: fb8f 393f 69ca 9e3e f83f 483f 3fa6 3d3f
00000050: 0f3e 453f da04 3a3f 8d33 c43e d153 003e
00000060: 7830 1e3e c3d6 283f cf9e 153f d278 b23d
00000070: e979 9cbe 1d6b 4c3f 4977 c63e 0587 88be
00000080: c1fe 743f aa0e 663f e900 2d3f 134e 21be
00000090: 2010 f43d 583e c63d fa45 f43e d4c0 9cbd
000000a0: 89be 5e3f e8eb e83e b882 013f e86a 143f
000000b0: ab9d 1c3f c727 453f 992b 363f 8550 e03d
000000c0: 3e04 953e e4a1 143f 6aa8 673f 4226 253f
000000d0: d8ff 253f 90a1 ddbe 4c01 55be 68ad ed3d
000000e0: a2df 633e de89 253f 9dc8 a83e fdee 573f
0.99795717 0.42362878 0.74709886 0.82597977 0.7067622 0.016098091 0.6191153 0.78191274
0.85187 -0.27227673 0.64902955 0.7810777 -0.19210985 0.54754055 -0.2754492 0.44510284
0.7248532 0.31013802 0.7822261 0.74081796 0.7704782 0.7266365 0.3832058 0.12531973
0.15448177 0.659527 0.5844545 0.08714451 -0.3056176 0.7985094 0.38762882 -0.26665512
0.95701224 0.89866126 0.67579514 -0.15752439 0.11917138 0.0967986 0.47709638 -0.076539665
0.87009484 0.45492482 0.50590086 0.57975626 0.6117808 0.7701382 0.71160275 0.10952858
0.291048 0.58059525 0.90491354 0.645115 0.6484351 -0.43287325 -0.20801276 0.1160534
0.22253278 0.64663494 0.32965556 0.8434904

net.2.weight f4 [15, 60]
00000000: 9bd2 2cbd 3ec0 fa3c f268 ddbc a69a e5bb
00000010: 4813 2cbe aec4 4bbd c3da 32bd ac5c a6bd
00000020: f351 a4bd 6bcd 14bd 7976 16be 162d 0dbe
00000030: a8d1 0e3d 84fb 20be a6a8 063b 173f 42bd
00000040: 895f efbd f4b9 d9bd 9aac 8abd 752d 61bd
00000050: a78e 13bd 3cfb 1e3d b45b a0bd 9041 433d
00000060: b037 9dbd a123 41be c031 2bbe 8d70 c2bd
00000070: 2f69 e7bc 1dc8 21be 1856 513d 4e05 3e3c
00000080: e7f2 03bd 4828 9fbb 24cf c8bd eea9 ef3d
00000090: 2244 12bc d801 d3bd a844 61bc 224f b8bd
000000a0: 16dc b7bd 17cd 30bb b239 b1bd 3299 6b3a
000000b0: 5642 ddba ecd9 99bd d949 babc 370a 443d
000000c0: 1913 cabd df61 4ebd dcc7 e4bd 7218 1ebe
000000d0: 8170 863d 5eee dbbd cd8c ebb9 3222 8d3c
000000e0: bf29 3c3d 9c11 433d 74fb 0a3d 3ef3 343b
000000f0: dd1a 57bd a784 7ebe 0db0 e5bd df9f cebc
00000100: 4700 d6bd 35de e5bd d673 47be 6d20 04be
00000110: c720 05be f853 b7bc cfd0 7abe 2219 99be
00000120: f414 41bd fe8e 88be 13fe a1be af55 32be
00000130: 4d9e 61be 96fb 30be d74f 45be 71e8 da3c
00000140: f02b 21be 4ddc a3bd 4537 5ebe 1cf8 78be
00000150: c09a 12be 3609 53bd 46c9 203d d684 b2bc
00000160: 3544 bbbd 9560 02be fbb3 3abe 78c1 0fbe
00000170: 5cb8 e9bd 334e d6bd 857a febd e888 133e
00000180: fb39 4b3d cf2b dfbd c859 b3be 3d65 9ebd
00000190: 50d4 02bd 09d3 5c3a ba2f 86be 99ac 6abe
000001a0: 0d78 60be 2362 ddbd c0d4 f7bd 1b2a f5bd
000001b0: 2094 e0bd 2591 8f3b fd0f 2bbe 323b 35be
000001c0: 577b 69be 5a32 d7bd e6e7 0b3d be04 aabd
000001d0: 5b0a e8bc fb52 2abe dce0 65be 4511 66be
000001e0: 88a5 03be 7171 a8bc 6836 f0bd 191f 39bd
000001f0: 56f6 523d 45a2 37bd 6f21 7fbc 3619 e33b
00000200: 7f27 e5bd e338 edbd d333 9ebd 11df 39be
00000210: ad8d 133d ddb9 71bd 3147 fc3d 9e71 e8bc
00000220: 9d81 cf3a 355b 293b 9476 01be 5363 33be
00000230: 3454 2dbe 5e38 25bb 49b5 133d b6ca 6dbc
00000240: fbd1 c83b 2a3b 31bd 191c cbbd d6a3 d0bd
00000250: ddd1 30bd 162c 653c 9e99 293c f9a8 cb3c
00000260: 2bd0 ebbb 7250 15be 955e 223d 98ea 733d
00000270: 4275 c93d 03d0 0cbd 703b 36be 4649 90bd
00000280: dfe4 893b 5383 b0bd 0032 bbbd af2a ad3a
00000290: cf9b 8f3d 652f 1fbb 948f 06be 6fd2 d03d
000002a0: 6fdf 2cbd 3699 21bd 26bb 08be 64ed 02be
000002b0: 4a5d babd e38c d13d 515e af3d 5f70 60bd
000002c0: a13b bdbc 2873 7ebd 4ba4 17be 1e81 f53c
000002d0: 60d5 ff3e cfb7 ee3e 8696 c03e c7d0 013f
000002e0: d5c9 d13e 11d1 3bbc 5979 cb3e 8b89 f33e
000002f0: 3048 123f bdc6 34be f5ae fb3e 3c22 1b3f
00000300: 5c5b b0be b049 9f3e de8e 73bd 0932 763e
00000310: 3b79 f63e 847f 053f e68d 643f 4631 053f
00000320: 81e8 c43e 6dd9 b83e f2c4 c23e 0780 39be
00000330: 8690 ca3d 6f86 ca3e 8a4d 043f 5a69 223d
00000340: 5285 f43d 2796 d23e 87d0 d83e b890 b73d
00000350: ceff 263f 8f62 b43e 62fe 063f 173e 3dbe
00000360: 70ea 293e 2392 6e3c 55a6 c93e 7575 66bc
00000370: a006 003f a322 923e 93ee 633e c564 9d3e
00000380: 9c65 603e 2ab5 103f 3c68 4d3f c93c 893e
00000390: ad57 b4bd a679 773e 4fa5 123f 03a8 a73e
000003a0: 6aa5 d63e 8569 083d b5c0 fc3d 0eeb a53e
000003b0: f5bc 003e 9fdc c33e f64f b53c 57cd f73e
000003c0: ce56 ed3e 0d3c 0d3f 1858 f93e 3fdc f33e
000003d0: 3d1c e13e 2c37 ad3e 8a85 273f b4a7 b23e
000003e0: 39a4 9b3e 8d6e 283e 066c 253f 2d4d 533f
000003f0: 0da5 5dbe ea41 153f 2d09 3bbe f7d9 503e
-0.042193037 0.030609246 -0.02702758 -0.007006961 -0.1680423 -0.049748115 -0.04366566 -0.081231445
-0.08023443 -0.036328714 -0.14693631 -0.1378673 0.034867913 -0.15720946 0.00205473 -0.04742345
-0.11688144 -0.10631171 -0.067712024 -0.05497499 -0.036024716 0.038813815 -0.07829991 0.047669947
-0.07676637 -0.18861248 -0.16718197 -0.094941236 -0.028248398 -0.15798993 0.051107496 0.011597944
-0.03221407 -0.004857097 -0.09805134 0.117023334 -0.008927377 -0.10303086 -0.013749279 -0.089994684
-0.08977525 -0.0026977712 -0.08653583 0.00089873665 -0.0016880732 -0.075122684 -0.022740291 0.047861304
-0.09866924 -0.050386306 -0.11170933 -0.15439013 0.06564427 -0.10738824 -0.00044927598 0.01722822
0.04593825 0.047624215 0.03393121 0.0027610804 -0.052515853 -0.2485529 -0.1121522 -0.025222717
-0.10449272 -0.11224023 -0.19477782 -0.12902994 -0.13000785 -0.022378907 -0.24493717 -0.29901987
-0.047139123 -0.26671594 -0.31639156 -0.17415498 -0.22033043 -0.17283472 -0.19268738 0.026722165
-0.15739417 -0.080010034 -0.21700771 -0.24313396 -0.14316845 -0.051522456 0.03925445 -0.021791857
-0.09143869 -0.12732156 -0.1823272 -0.14038646 -0.11412117 -0.10464134 -0.124257125 0.14407694
0.04961584 -0.10897028 -0.35029435 -0.077341534 -0.03194076 0.00084237807 -0.26208287 -0.22917403
-0.21920796 -0.10809734 -0.12101126 -0.119709216 -0.109657526 0.0043813162 -0.16705318 -0.17698362
-0.22800957 -0.10507651 0.034156702 -0.08301686 -0.02832525 -0.16633217 -0.22449058 -0.22467525
-0.12856114 -0.020561906 -0.11729127 -0.045195673 0.051504456 -0.044832487 -0.015571936 0.0069304956
-0.11189174 -0.11583116 -0.077247284 -0.181515 0.036023784 -0.059015144 0.12318266 -0.02837449
0.0015831474 0.0025841717 -0.1264289 -0.17518358 -0.16926652 -0.00252106 0.03606156 -0.014513662
0.0061285472 -0.043269314 -0.099174686 -0.10187499 -0.04316889 0.013987562 0.010351567 0.024860846
-0.0071964464 -0.14581469 0.03964098 0.059549898 0.09836818 -0.034378063 -0.17796111 -0.07045226
0.0042081918 -0.08618798 -0.09140396 0.0013211573 0.0701214 -0.0024289724 -0.13140708 0.10196387
-0.04220527 -0.039452754 -0.13352641 -0.1278587 -0.09099825 0.1023195 0.08562911 -0.054794665
-0.023099722 -0.06212154 -0.14808767 0.029968794 0.4996748 0.4662461 0.3761484 0.50709194
0.40974298 -0.0114634195 0.39741018 0.47565874 0.571414 -0.17653938 0.4915692 0.6059911
-0.34444702 0.31110907 -0.05946242 0.24042524 0.48139367 0.521477 0.8927902 0.5202831
0.38458636 0.36103383 0.38040882 -0.18115245 0.09890847 0.3955569 0.51680815 0.039651252
0.11939491 0.41130182 0.42346594 0.0896315 0.65234077 0.35231444 0.5273191 -0.18480717
0.16593337 0.014561209 0.39384714 -0.01406609 0.5001011 0.2854205 0.22258978 0.30740944
0.21913761 0.56526434 0.80237174 0.26804188 -0.08805785 0.24167499 0.5728349 0.3274537
0.41923076 0.033303756 0.123414434 0.32405895 0.12572081 0.38254258 0.022132855 0.4839885
0.4635529 0.55169755 0.48700023 0.47628972 0.43966857 0.33831155 0.6543814 0.34893572
0.3039873 0.16448422 0.64617956 0.82539636 -0.21644993 0.583037 -0.18265219 0.20395647

net.2.bias f4 [15]
00000000: fc35 7cbd c748 7cbe a784 9fbd 5f6d 3a3f
00000010: 6e14 293f c7d3 0dbe c645 0e3f 9167 20bd
00000020: 8822 e13e 57da 273f 27bc 2f3f bf54 e9bd
00000030: 63d5 303f 2970 303f cbdb 24be
-0.06157492 -0.24637137 -0.07788973 0.7282314 0.660468 -0.13850318 0.55575216 -0.03916127
0.43971658 0.65567535 0.6864647 -0.11393117 0.690756 0.6892114 -0.1609947

net.4.weight f4 [3, 15]
00000000: ccb6 92bd f60e 433d f86f 833e 3952 0b3f
00000010: f745 1d3f b5f5 963d 6d27 b83e 691b fc3a
00000020: 1aa3 cb3e 2ee7 1f3f 76e1 e63e e87c 2dbe
00000030: e8e7 103f f496 193f c3b3 d5bc f900 fcbc
00000040: 27ca 88bd e483 fa3c 080b 1f3f 8bca 333f
00000050: 78dc cabd 1a80 303e adb2 103e 477b 4f3f
00000060: 94e3 303e 1342 c33e 0277 c33c 91ab 0d3f
00000070: 5b88 033f 2e1f 393e 29d1 26be b391 0e3e
00000080: 5184 aa3b e267 2c3f 9c86 da3e 26c6 3cbd
00000090: 0d66 293f 61f6 bdbc 9bcf 91bd 36bc 1b3f
000000a0: b4e3 233f 70fe 253d 6ce2 533e 4676 143f
000000b0: 496c d83d
-0.07163772 0.04762169 0.25671363 0.54422337 0.6143488 0.07371084 0.3596758 0.0019234243
0.39772874 0.6246213 0.45093888 -0.16942179 0.5660386 0.5999596 -0.026086694 -0.030762183
-0.066791825 0.030580468 0.6212621 0.7023093 -0.09905332 0.17236367 0.1413066 0.8104748
0.17274314 0.38136348 0.023860458 0.55339915 0.51379937 0.180783 -0.16290726 0.13922767
0.0052037616 0.6734601 0.42680824 -0.046087407 0.6617134 -0.023188772 -0.07119676 0.6083406
0.6401932 0.040525854 0.20691842 0.5799297 0.10567529

net.4.bias f4 [3]
00000000: 304f 1f3f 4753 183f 854c e43e
0.62230206 0.5950207 0.4458963
