runs/20250608_160214/models/best_model_at_epoch_22.pt (torch, 10313 bytes, 6 tensors)

net.0.weight f4 [60, 12]
00000000: 3c97 193f 03ae abbd 70c6 35bf e093 5bbe
00000010: 33aa 2fbd d3f8 a6be 0d7f 56bd abc7 c13e
00000020: 2d98 c33e fcce f43d 97dc 0b3f cabb 153f
00000030: 697c e03e ca12 2f3f 7b91 d23c e55b 3b3e
00000040: bc3d 063e 2202 2b3f c833 96be 5d13 e53d
00000050: 7ffc 1cbf 328c 04bf 8d41 4cbe edee b0be
00000060: 30a2 ae3e 7f91 9b3e 618f 2ebf c354 79be
00000070: 73ce e63c 92ae 393e d669 a03e 1999 0d3e
00000080: eb2c a53e defb c1bc 41c4 8abd f7dc 323f
00000090: e617 c43e 4a99 9a3d e50d 8ebe 4d22 42be
000000a0: 211b 50be 4a25 2d3e db94 c3be 34b2 043f
000000b0: df5d 0d3f e631 003c 9cc2 b83e dbd7 ec3e
000000c0: b34d e33e 6085 893e 9b87 a1be 6698 113e
000000d0: 38df efbd 891f 1b3e 3393 953e 8ebd 933e
000000e0: a43d ec3e 60e1 8c3e ed18 d23e 58df 203e
000000f0: ef9d 0d3f 8a56 0b3f 4b44 083f 11b8 57bd
00000100: f17b 72bd b8f4 403f 7d2b 0c3e 5494 fdbe
00000110: 87d5 9ebe 53a9 7dbe bb2a a13d fd4f a2bd
00000120: bc18 173f 4f54 493f 69e4 533e 9cb9 133e
00000130: 2394 8cbb 8972 2f3f b3c7 653e 226b edbe
00000140: fbd7 093d df1e cd3e 6666 cfbd 0d1d 703e
00000150: e870 823e 23ad f23d 59b2 eabd f097 98bc
00000160: 961e 1abc 20d4 a23d fb40 563e 7414 b73e
00000170: e88e dbbe ffca 19bd 2d16 6d3e 22a1 213f
00000180: 96c0 e23e 7be7 b33d b936 9ebe e8bd 65be
00000190: aa4f 0ebe e3b8 68be d350 52bc a4aa 073f
000001a0: 13dd 503e 1859 573e e1cc e23e e259 853e
000001b0: 415c 333e a85a 9d3d 0ab8 ca3e cf08 afbd
000001c0: f7f5 15be 7fd6 ee3e cfaa fdbd d758 f7be
000001d0: b6ef b7be f810 59be 2fa6 61be ff50 3dbe
000001e0: a3c3 033f 4f17 5d3f 23d6 9d3e 223d a23d
000001f0: ac8b 13be 01d2 efbd d5e5 613e 4c99 d3be
00000200: 426c df3c f093 703c 975e 393e 146e ebbd
00000210: ed52 9b3e 10ec 9c3e a65b d63e 97f1 853e
00000220: 84f8 b03e f355 d13e 7305 1ebe fb66 a1be
00000230: 0ddd ab3c 67e8 45be 7bd0 9bbe 6c0a 8e3d
00000240: 9908 93be bd55 b43e fa4b 99be 61bc 12be
00000250: 71e2 afbe d84c b6be 3313 5ebe 70a5 4bbe
00000260: a43a aebe f18e 0bbe a043 0fbd 9b0d aabe
00000270: c4eb 113f 2a05 683f 13f2 403e 0ad5 f63e
00000280: 68d3 b43e c024 a53e 6d5d 6b3e 3419 143e
00000290: ae76 e5be f0e7 fe3d e191 683b b081 4abe
000002a0: 38c2 ecbe 6f5e 64be fb4f c5be 273e 9b3e
000002b0: 6a42 813e 6624 f8bd 5128 32be 9909 9cbe
000002c0: b4a6 093e a61f 013e b921 98bc 6c95 df3c
000002d0: 6363 933e 069b eb3e 3913 7bbe 8406 dbbe
000002e0: 5f3f 333e d78b 00bf aa87 db3e 9724 323d
000002f0: 8b4e e2be f475 60be cbc4 253c 68b5 3fbe
00000300: ff8f 523e e2d6 3e3f e1f3 063e 65a5 473e
00000310: ad14 c2be 38d7 59be ed25 5e3e 7495 83bc
00000320: b150 89be 921e c33e 38cc 3c3e c074 d93e
00000330: 08de 363f e1e7 523e 373a 24bf ce3d 4ebf
00000340: 8267 b6be 0585 f0be 59bc 1ebf 83ea 8ebe
00000350: 7164 58bf ffb4 ebbd e491 b5be 9cf0 723e
00000360: e1f3 c73e fee5 043f 02aa 19bf 1bcf d4be
00000370: a821 2cbd 96e8 d9be d5ce 4d3e 6e90 a7be
00000380: 4cd6 b03d 6827 033f 9cff 0e3e d1b7 813e
00000390: b793 003f 247c 613d d869 e0be 2a5c 74bf
000003a0: a7e2 3cbe 0167 a3be 2b2b 1fbd 5878 f03e
000003b0: 0bc9 0a3f 28c4 53bd 71ac 8c3d fd2f c3be
000003c0: b3aa b83e a7f0 063e ed00 27be 6919 01bf
000003d0: 1f8f f9be bb73 853e a81d e93e f972 0b3f
000003e0: 58fe 273e 33bc 483e fddb 0e3f 0c05 ebbb
000003f0: 4fc4 fb3e 269c 143f 3e85 da3e c6a7 df3e
0.5999639 -0.083827995 -0.71005917 -0.21443129 -0.042886924 -0.32611713 -0.05236726 0.37847647
0.38202038 0.11953542 0.5463347 0.5848967 0.43844917 0.68388045 0.025704136 0.18296774
0.13109487 0.6680013 -0.2933638 0.11185334 -0.6132278 -0.5177642 -0.1994688 -0.34557286
0.34108114 0.30384442 -0.6818753 -0.2434874 0.028174615 0.18133 0.31330746 0.13827933
0.32260832 -0.02367967 -0.06775714 0.69868416 0.38299483 0.07548769 -0.27744976 -0.18958397
-0.20322849 0.16908756 -0.38199505 0.51834416 0.5522136 0.007824397 0.36085975 0.46258435
0.44395217 0.2685957 -0.3154877 0.14218292 -0.117124975 0.15148748 0.29213867 0.28855556
0.46140778 0.27515697 0.41034642 0.15710199 0.5531911 0.54428923 0.53229207 -0.052665774
-0.05920023 0.7537341 0.13688464 -0.49527228 -0.31022283 -0.24771623 0.07869478 -0.07925413
0.59022117 0.7864427 0.206926 0.14426273 -0.00429012 0.6853414 0.2243946 -0.46370798
0.03365324 0.40062615 -0.10126953 0.23448582 0.25476766 0.118494295 -0.11459798 -0.018627137
-0.009406706 0.07950616 0.20923226 0.35757792 -0.42882466 -0.037547108 0.2315299 0.63136494
0.44287556 0.08784386 -0.30901125 -0.22435725 -0.13897577 -0.22726779 -0.012836653 0.5299475
0.20396833 0.2103008 0.44296935 0.26045138 0.17515661 0.07683307 0.39593536 -0.08546602
-0.1464461 0.46648023 -0.12386095 -0.48309967 -0.35925072 -0.2119788 -0.2203605 -0.18487929
0.5147039 0.8636369 0.30827436 0.079218164 -0.1440875 -0.11709977 0.2206033 -0.41327894
0.027273301 0.014683709 0.1810249 -0.11495605 0.30336705 0.3064885 0.41866797 0.2616088
0.34564602 0.40885887 -0.15431766 -0.3152388 0.020979429 -0.19326936 -0.30432495 0.069355816
-0.28717497 0.35221663 -0.29940778 -0.14329673 -0.3435245 -0.35605502 -0.21687011 -0.19887328
-0.34029114 -0.13628747 -0.0349766 -0.33213505 0.57000375 0.9063288 0.18842344 0.4820941
0.3531754 0.322546 0.22984858 0.14462739 -0.44817108 0.12446582 0.0035487341 -0.19776034
-0.46241927 -0.22301649 -0.38537583 0.30320856 0.25245982 -0.121163175 -0.17398192 -0.30476072
0.13442498 0.12609729 -0.018570768 0.02729293 0.28786764 0.4601671 -0.24519052 -0.4277841
0.17504643 -0.5021338 0.4287694 0.043491926 -0.4420055 -0.21919996 0.01011772 -0.18721545
0.20562743 0.74546635 0.1317897 0.19496687 -0.379064 -0.21273506 0.21694155 -0.016062476
-0.26819375 0.3810926 0.18437278 0.42471886 0.7143254 0.20596267 -0.6415133 -0.80563056
-0.35625845 -0.46976486 -0.62006146 -0.27913293 -0.8452826 -0.11509132 -0.35462868 0.23724598
0.39053252 0.5191344 -0.60025036 -0.4156426 -0.042024285 -0.4256026 0.20098431 -0.3272738
0.08634624 0.51232004 0.13964695 0.25335553 0.50225395 0.05505003 -0.43830752 -0.9545313
-0.18445836 -0.31914523 -0.038859528 0.46966815 0.5421302 -0.05170074 0.06868828 -0.3812255
0.36067733 0.13177739 -0.16308947 -0.504294 -0.48742005 0.26064858 0.45530438 0.5447231
0.16405618 0.19603042 0.55804425 -0.0071722325 0.4917321 0.58050764 0.4267978 0.43682688

net.0.bias f4 [60]
00000000: 7869 973f 7f7d 1d3f 3e70 6e3f 5838 813f
00000010: 8613 643f bbb3 553e 609c 4f3f a351 773f
00000020: 73bf 843f de46 89be 52aa 573f 7fc9 783f
00000030: d1b9 44be b155 3d3f f524 8dbe 3f11 253f
00000040: cbfe 693f 41c1 fe3e 14bd 783f f648 6d3f
00000050: 5159 743f 7fc0 6a3f a55b 113f 095a 9b3e
00000060: 3450 b03e 19ff 573f 3718 473f 4ce8 933e
00000070: e979 9cbe 6816 7d3f 367f 133f d88a 88be
00000080: 5043 923f bdf2 8a3f 185f 5c3f 784f 21be
00000090: cf49 9d3e cda6 973e 0424 2c3f 796c f23d
000000a0: 9036 873f dfce 243f 2e32 333f 5173 433f
000000b0: 770e 4e3f 707b 753f c36d 663f 8003 9b3e
000000c0: 1115 fa3e 4574 433f ff59 8b3f 19cf 543f
000000d0: e6c5 563f 9214 c6be 4c01 55be 3658 a23e
000000e0: 0c1e d13e 3e2c 553f 9d76 063f 1947 843f
1.1829062 0.61519617 0.9314002 1.009532 0.8909229 0.20869343 0.81097984 0.9660894
1.0370926 -0.2681188 0.84244263 0.9718246 -0.19211508 0.7395888 -0.27567258 0.6447944
0.9140441 0.49756816 0.9716351 0.92689455 0.95448786 0.91699976 0.56780463 0.3034213
0.3443619 0.84373623 0.77771324 0.28888166 -0.3056176 0.98862314 0.57615983 -0.2666843
1.1426792 1.0855328 0.860826 -0.15752971 0.30720374 0.29619446 0.67242455 0.11837096
1.0563526 0.6437816 0.69998443 0.76347834 0.8049082 0.95891476 0.90011233 0.30276108
0.48844197 0.7634929 1.088684 0.83128506 0.8389572 -0.3868757 -0.20801276 0.31707925
0.40843236 0.83270633 0.5252474 1.0334197

net.2.weight f4 [15, 60]
00000000: 9bd2 2cbd 3ec0 fa3c f268 ddbc a69a e5bb
00000010: 4813 2cbe aec4 4bbd c3da 32bd ac5c a6bd
00000020: f351 a4bd 6bcd 14bd 7976 16be 162d 0dbe
00000030: a8d1 0e3d 84fb 20be a6a8 063b 173f 42bd
00000040: 895f efbd f4b9 d9bd 9aac 8abd 752d 61bd
00000050: a78e 13bd 3cfb 1e3d b45b a0bd 9041 433d
00000060: b037 9dbd a123 41be c031 2bbe 8d70 c2bd
00000070: 2f69 e7bc 1dc8 21be 1856 513d 4e05 3e3c
00000080: e7f2 03bd 4828 9fbb 24cf c8bd eea9 ef3d
00000090: 2244 12bc d801 d3bd a844 61bc 224f b8bd
000000a0: 16dc b7bd 1ccd 30bb b239 b1bd 3299 6b3a
000000b0: 6342 ddba ecd9 99bd d949 babc 370a 443d
000000c0: 1913 cabd df61 4ebd dcc7 e4bd 7218 1ebe
000000d0: 8170 863d 5eee dbbd cd8c ebb9 3222 8d3c
000000e0: bf29 3c3d 9c11 433d 74fb 0a3d 39f3 343b
000000f0: 651b 57bd bc84 7ebe 51b0 e5bd dda0 cebc
00000100: 8e00 d6bd 57de e5bd f173 47be 8f20 04be
00000110: e920 05be ab54 b7bc ead0 7abe 2c19 99be
00000120: ed14 41bd 0c8f 88be 1afe a1be d355 32be
00000130: 689e 61be aafb 30be ef4f 45be 71e7 da3c
00000140: 122c 21be 8ddc a3bd 6737 5ebe 30f8 78be
00000150: d59a 12be bf09 53bd e7c8 203d 8e85 b2bc
00000160: 3544 bbbd b560 02be 1db4 3abe 93c1 0fbe
00000170: 9fb8 e9bd 774e d6bd c47a febd f088 133e
00000180: 8639 4b3d fe2b dfbd d759 b3be 7d65 9ebd
00000190: d8d4 02bd 44b2 5c3a c62f 86be bbac 6abe
000001a0: 2b78 60be 6a62 ddbd 02d5 f7bd 4f2a f5bd
000001b0: 4d94 e0bd c18c 8f3b 2310 2bbe 543b 35be
000001c0: 757b 69be 7a32 d7bd e6e7 0b3d e404 aabd
000001d0: 630b e8bc 1b53 2abe f4e0 65be 6511 66be
000001e0: 88a5 03be 7171 a8bc 6836 f0bd 191f 39bd
000001f0: 56f6 523d 45a2 37bd 7821 7fbc 2119 e33b
00000200: 7f27 e5bd e338 edbd d333 9ebd 11df 39be
00000210: ad8d 133d ddb9 71bd 3147 fc3d a071 e8bc
00000220: 4581 cf3a 355b 293b 9476 01be 5363 33be
00000230: 3454 2dbe 8b38 25bb 49b5 133d b6ca 6dbc
00000240: fbd1 c83b 2a3b 31bd 191c cbbd d6a3 d0bd
00000250: ddd1 30bd 0d2c 653c 9599 293c f9a8 cb3c
00000260: 40d0 ebbb 7250 15be 955e 223d 98ea 733d
00000270: 4275 c93d 03d0 0cbd 703b 36be 4649 90bd
00000280: cae4 893b 5383 b0bd 0032 bbbd af2a ad3a
00000290: cf9b 8f3d 922f 1fbb 948f 06be 6fd2 d03d
000002a0: 6fdf 2cbd 3699 21bd 26bb 08be 64ed 02be
000002b0: 4a5d babd e38c d13d 515e af3d 5f70 60bd
000002c0: a13b bdbc 2873 7ebd 4ba4 17be 1c81 f53c
000002d0: 230e 2c3f 75c8 283f e35e 0c3f 3f7a 2d3f
000002e0: 38f1 123f d226 403e 0a83 153f 88c2 253f
000002f0: 64dc 3d3f 673c 25be 2563 303f b505 4d3f
00000300: d35a b0be 169b fa3e 3477 73bd fdb7 dc3e
00000310: d14e 2c3f 8253 483f 992b 8b3f d945 323f
00000320: 52a8 0b3f 829e 0a3f 808a 0e3f 8b15 603c
00000330: 86b7 8e3e 679c 0f3f b423 353f 2eca 7d3e
00000340: 5285 f43d ddf2 183f cc3b 1c3f 1a9f b73d
00000350: 486a 543f 990b 063f b418 343f f93f 3dbe
00000360: 58eb b03e 04b4 683e 8c76 153f 7529 5b3e
00000370: d8f9 2a3f db8a ed3e 53c9 d53e 8b0e 023f
00000380: 1625 d53e 6636 433f e805 803f 0d29 f33e
00000390: c854 de3d 3b02 d13e beb1 3d3f f734 003f
000003a0: 58b9 1a3f 19e3 b23d b5c0 fc3d 6ea5 0a3f
000003b0: 284e 953e dcd0 0d3f 84c5 8a3e 24aa 2a3f
000003c0: 951f 233f 34ad 3e3f 9ff0 283f 4df0 253f
000003d0: d6d9 1a3f 3ba8 093f dd62 573f b785 053f
000003e0: f865 f33e 073c 383e 1a11 583f 0ba2 823f
000003f0: 41a4 5dbe 1101 433f fc03 3bbe 7565 ca3e
-0.042193037 0.030609246 -0.02702758 -0.007006961 -0.1680423 -0.049748115 -0.04366566 -0.081231445
-0.08023443 -0.036328714 -0.14693631 -0.1378673 0.034867913 -0.15720946 0.00205473 -0.04742345
-0.11688144 -0.10631171 -0.067712024 -0.05497499 -0.036024716 0.038813815 -0.07829991 0.047669947
-0.07676637 -0.18861248 -0.16718197 -0.094941236 -0.028248398 -0.15798993 0.051107496 0.011597944
-0.03221407 -0.004857097 -0.09805134 0.117023334 -0.008927377 -0.10303086 -0.013749279 -0.089994684
-0.08977525 -0.0026977723 -0.08653583 0.00089873665 -0.0016880747 -0.075122684 -0.022740291 0.047861304
-0.09866924 -0.050386306 -0.11170933 -0.15439013 0.06564427 -0.10738824 -0.00044927598 0.01722822
0.04593825 0.047624215 0.03393121 0.0027610792 -0.05251636 -0.24855322 -0.1121527 -0.02522319
-0.104493245 -0.112240486 -0.19477822 -0.12903045 -0.13000835 -0.02237924 -0.24493757 -0.29902017
-0.047139097 -0.26671636 -0.31639177 -0.17415552 -0.22033083 -0.17283502 -0.19268773 0.026721688
-0.15739468 -0.08001051 -0.21700822 -0.24313426 -0.14316876 -0.051522966 0.039254095 -0.0217922
-0.09143869 -0.12732203 -0.1823277 -0.14038686 -0.11412167 -0.10464185 -0.124257594 0.14407706
0.049615405 -0.10897063 -0.3502948 -0.07734201 -0.031941265 0.00084188976 -0.26208323 -0.22917454
-0.2192084 -0.108097866 -0.12101175 -0.1197096 -0.10965786 0.004380793 -0.16705374 -0.17698413
-0.22801001 -0.105076745 0.034156702 -0.08301714 -0.028325742 -0.16633265 -0.22449094 -0.22467573
-0.12856114 -0.020561906 -0.11729127 -0.045195673 0.051504456 -0.044832487 -0.015571944 0.006930486
-0.11189174 -0.11583116 -0.077247284 -0.181515 0.036023784 -0.059015144 0.12318266 -0.028374493
0.0015831372 0.0025841717 -0.1264289 -0.17518358 -0.16926652 -0.0025210704 0.03606156 -0.014513662
0.0061285472 -0.043269314 -0.099174686 -0.10187499 -0.04316889 0.013987553 0.010351558 0.024860846
-0.007196456 -0.14581469 0.03964098 0.059549898 0.09836818 -0.034378063 -0.17796111 -0.07045226
0.004208182 -0.08618798 -0.09140396 0.0013211573 0.0701214 -0.0024289829 -0.13140708 0.10196387
-0.04220527 -0.039452754 -0.13352641 -0.1278587 -0.09099825 0.1023195 0.08562911 -0.054794665
-0.023099722 -0.06212154 -0.14808767 0.02996879 0.6720907 0.65930873 0.54832286 0.6776466
0.5739932 0.18764809 0.58403075 0.64749956 0.74164414 -0.16136323 0.6890128 0.80086833
-0.34444293 0.48946446 -0.059439853 0.43109122 0.67307764 0.7825242 1.087268 0.6963783
0.5455371 0.54148114 0.55680084 0.013677011 0.27874392 0.56098026 0.70757604 0.24784157
0.11939491 0.5974558 0.6102874 0.08965893 0.8297467 0.52361447 0.70350194 -0.18481435
0.34554553 0.2272492 0.58384013 0.21402533 0.6678748 0.46395 0.4175516 0.5080344
0.41629857 0.7625488 1.0001802 0.47492257 0.108560145 0.40822014 0.7409934 0.5008082
0.6043906 0.08734722 0.123414434 0.54158676 0.2916119 0.5539682 0.27103817 0.66665864
0.63720065 0.74483037 0.6599216 0.64819795 0.6048864 0.53772324 0.8413523 0.5215716
0.47538733 0.17991649 0.84401095 1.0205702 -0.21644689 0.761735 -0.18263239 0.3953053

net.2.bias f4 [15]
00000000: fc35 7cbd eb48 7cbe a784 9fbd 0837 683f
00000010: 4b2b 573f c7d3 0dbe bd8f 3b3f 9167 20bd
00000020: 9faf 203f 856c 543f 188d 5d3f bf54 e9bd
00000030: 1d39 5f3f d310 5e3f ccdb 24be
-0.06157492 -0.24637191 -0.07788973 0.9070897 0.84050435 -0.13850318 0.732662 -0.03916127
0.62767977 0.8297809 0.86543417 -0.11393117 0.8719652 0.8674442 -0.16099471

net.4.weight f4 [3, 15]
00000000: ccb6 92bd 6b0f 433d f86f 833e a208 393f
00000010: 5326 4b3f b5f5 963d cf13 0a3f 761b fc3a
00000020: b725 143f 772d 4d3f 9a29 213f e87c 2dbe
00000030: 25fa 3e3f 9523 473f c3b3 d5bc f900 fcbc
00000040: efc9 88bd e483 fa3c 5812 513f 0f65 643f
00000050: 78dc cabd a7f6 bf3e adb2 103e b700 813f
00000060: 618d b83e 47de 133f 0277 c33c 78fc 3e3f
00000070: 3200 343f 2d1f 393e 29d1 26be d091 0e3e
00000080: 6684 aa3b cd67 2c3f f5a8 da3e 26c6 3cbd
00000090: 8c58 293f 61f6 bdbc f2ce 90bd fdae 1b3f
000000a0: 29de 233f 70fe 253d e828 543e 877b 143f
000000b0: 416c d83d
-0.07163772 0.047622126 0.25671363 0.722788 0.79355353 0.07371084 0.53936476 0.0019234258
0.5787005 0.801475 0.62954104 -0.16942179 0.7460044 0.7778867 -0.026086694 -0.030762183
-0.06679141 0.030580468 0.81668615 0.89216703 -0.09905332 0.37492868 0.1413066 1.0078343
0.36045364 0.57761043 0.023860458 0.74603987 0.703128 0.18078299 -0.16290726 0.1392281
0.0052037714 0.6734589 0.4270703 -0.046087407 0.66150737 -0.023188772 -0.07070722 0.60813886
0.64010864 0.040525854 0.2071873 0.5800099 0.10567523

net.4.bias f4 [3]
00000000: 957f 493f 0768 2f3f eb55 e43e
0.787103 0.6851811 0.445968
