runs/20250609_034323/models/best_model_at_train_round_1_epoch_95.pt (torch, 36081 bytes, 6 tensors)

net.0.weight f4 [120, 36]
0	0x3db08f58	0.08621091
1	0xbe22ed81	-0.15910913
2	0xbda8574e	-0.08219777
3	0x3d0c80ab	0.034302395
4	0xbdc83670	-0.09776008
5	0x3b1d7c6f	0.0024030467
6	0xbc8ca5f6	-0.01716898
7	0xbe10f57f	-0.1415615
8	0xbe98f475	-0.29874006
9	0xbe38517b	-0.17999832
10	0xbe480e48	-0.19536698
11	0x3da7f203	0.08200457
12	0xbd28cffd	-0.041213978
13	0xbde54308	-0.11194426
14	0xbe0cff83	-0.13769345
15	0x3ddb7e4f	0.10717451
16	0xbddbce98	-0.10732764
17	0xbbf5dc0c	-0.0075030383
18	0xbd9dbd28	-0.07702094
19	0xbe149327	-0.14509259
20	0xbe3df18a	-0.18549171
21	0xbe949dce	-0.29026645
22	0xbd048f62	-0.032363303
23	0x3dbc600a	0.091980055
24	0x3e3e490d	0.18582554
25	0xbe642d46	-0.22282895
26	0xbe084eba	-0.13311282
27	0xbe5c2cda	-0.21501485
28	0xbe0f94ab	-0.14021556
29	0xbdb4cef9	-0.088285394
30	0x3d8e38d8	0.06944436
31	0x3cc37fac	0.02386459
32	0xbed8e56d	-0.42362538
33	0xbe4ee5ce	-0.20204851
34	0xbe79fb88	-0.24412358
35	0xbea68660	-0.32524395
36	0xbeef4ede	-0.46739858
37	0xbe879f7c	-0.26488864
38	0xbe7efe79	-0.24901761
39	0xbe1954fd	-0.14973827
40	0xbe2c7861	-0.16842796
41	0xbd8bdc96	-0.06829183
42	0x3d3cd35c	0.046100006
43	0xbe3825c4	-0.17983156
44	0x3e3c693a	0.18399516
45	0x3e7081c8	0.23487008
46	0xbebed270	-0.37269926
47	0xbf0ee3e2	-0.5581647
48	0xbcfb410a	-0.030670661
49	0x3e39c4c3	0.18141465
50	0xbe35b008	-0.17742932
51	0xbe54bd1c	-0.20775265
52	0xbdaa06be	-0.08302067
53	0xbede420c	-0.43409765
54	0xbdcf9e60	-0.101376295
55	0xbd0e6b3e	-0.034770243
56	0xbe297b26	-0.16550884
57	0x3e93c24e	0.2885918
58	0x3e2280b6	0.15869412
59	0xbef91b9a	-0.4865387
60	0xbe140457	-0.1445478
61	0xbe2c3f57	-0.16821037
62	0xbe99ae70	-0.30015898
63	0xbe6ce86a	-0.23135534
64	0xbeba3b20	-0.36373234
65	0xbeedfd22	-0.46482188
66	0x3d1f3880	0.038872242
67	0x3e96a63a	0.29423696
68	0xbdfc0a5c	-0.123066634
69	0x3d82a0fb	0.06378361
70	0xbe1cc087	-0.15307818
71	0xbe963907	-0.29340383
72	0xbe438f86	-0.19097719
73	0xbe64f790	-0.22360063
74	0xbdcc2d5f	-0.09969591
75	0x3d08f0e5	0.03343286
76	0x3dd873a5	0.105689324
77	0xbd2c7d45	-0.042111654
78	0xbd8c0406	-0.06836705
79	0xbea5065c	-0.32231414
80	0xbe83c7eb	-0.25738463
81	0xbda333df	-0.07968878
82	0xbe714de0	-0.23564863
83	0xbf090f4b	-0.5353896
84	0x3dccc752	0.09998955
85	0x3e42f034	0.19036943
86	0x3da079cd	0.07835732
87	0xbe428dd7	-0.1899942
88	0xbe3d3025	-0.18475397
89	0xbe898cce	-0.26865238
90	0xbe3353b2	-0.17512396
91	0xbd89d06c	-0.067292064
92	0xbc06bd80	-0.008223891
93	0x3e410e6e	0.1885316
94	0xbdd9b7e3	-0.10630777
95	0xbe0c0532	-0.13673857
96	0x3d4ede40	0.050504923
97	0xbe665c34	-0.2249611
98	0xbe965195	-0.29359117
99	0xbd22da87	-0.039759185
100	0xbe7903f4	-0.24317914
101	0xbece273b	-0.40264305
102	0xbe2de96c	-0.16983575
103	0x3cdbabd3	0.02681533
104	0xbb385510	-0.0028126873
105	0x3cfd64a4	0.030931778
106	0xbe1d3f76	-0.1535624
107	0xbdad61af	-0.08465897
108	0xbddfcfb8	-0.10928291
109	0xbc99e41f	-0.018785534
110	0xbd6d2f20	-0.05790627
111	0x3e792d02	0.24333575
112	0x3eb14c02	0.34628302
113	0xbda9dc4e	-0.08293973
114	0x3e8fbdba	0.28074437
115	0x3e915bd0	0.2839036
116	0x3daa472d	0.08314357
117	0x3e66b8b3	0.22531395
118	0x3e8bf755	0.27337137
119	0xbdf3ba36	-0.11900751
120	0xbec2c40d	-0.380402
121	0xbe4c4d25	-0.19951303
122	0x3d31e324	0.04342951
123	0x3e221d29	0.15831436
124	0x3dd3c617	0.10340517
125	0x3e06d300	0.13166428
126	0x3e6bd76b	0.23031394
127	0x3cec8ffb	0.028877249
128	0x3e2ca571	0.16859986
129	0x3e1f729e	0.15571067
130	0x3e83cff6	0.257446
131	0x3d92c782	0.07166959
132	0xbe9a49f7	-0.30134556
133	0xbc853f15	-0.016265431
134	0x3d5b55e5	0.053548712
135	0xbdb9660b	-0.09052666
136	0xbe50acd9	-0.20378436
137	0x3eb21755	0.34783426
138	0x3e32f9b4	0.17478067
139	0xbd11a4a9	-0.035557423
140	0x3e2a0de6	0.16606864
141	0xbe782bc8	-0.24235451
142	0x3d9a3b63	0.07530858
143	0x3e2904c7	0.16505729
144	0x3e319642	0.17342475
145	0x3e4ace22	0.19805196
146	0x3d50d067	0.050979998
147	0xbe73bac1	-0.2380171
148	0xbe092e6a	-0.13396612
149	0x3df6af1c	0.12045118
150	0xbdd5073c	-0.104017705
151	0x3e021ca5	0.1270624
152	0x3cff828c	0.03119018
153	0x3e4d8c10	0.20072961
154	0x3eb08f76	0.34484452
155	0x3e50029a	0.20313492
156	0x3de7693c	0.11299369
157	0x3e918164	0.2841903
158	0x3ee5efbf	0.44909474
159	0x3ea14118	0.31494975
160	0x3c779139	0.015110307
161	0x3e87cd74	0.26523936
162	0x3cb91ea6	0.022597622
163	0x3e30924a	0.17243305
164	0xbe0007ac	-0.12502927
165	0x3e693eb4	0.22777826
166	0x3c89afc6	0.016807448
167	0x3eb7d307	0.3590319
168	0x3e3e4d19	0.18584098
169	0x3e2f47d0	0.17117238
170	0x3c0c373d	0.008558092
171	0x3d5c165c	0.05373226
172	0x3d337e88	0.04382184
173	0xbe1b4079	-0.15161313
174	0xbceb7a99	-0.028744983
175	0xbc629c36	-0.013831189
176	0xbce51ba4	-0.027967282
177	0xbc5d0b44	-0.013491455
178	0x3d6f70d8	0.058457226
179	0x3ed1ad7e	0.40952677
180	0xbc62fb20	-0.013853818
181	0x3ed155a7	0.4088566
182	0xbec892ce	-0.39174503
183	0xbe35a4e5	-0.17738684
184	0x3e2b3d65	0.16722639
185	0xbda8be38	-0.08239406
186	0xbc9f73a6	-0.019464325
187	0x3d33f2b9	0.04393265
188	0xbe86f0cf	-0.26355597
189	0xbd2e6c85	-0.04258396
190	0xbde88b04	-0.1135464
191	0xbe1bda13	-0.15219907
192	0x3f08b31a	0.5339829
193	0x3b878f7b	0.0041369773
194	0xbe7f2f0a	-0.24920288
195	0xbd7f8cf9	-0.0623903
196	0x3c34c25e	0.011032669
197	0x3d0199c6	0.03164079
198	0xbd604fab	-0.054763477
199	0xbd58834e	-0.052859597
200	0xbe14da22	-0.14536336
201	0xbdbb255d	-0.09137986
202	0xbe974b01	-0.2954941
203	0xbd95f87d	-0.07322786
204	0x3ead693a	0.33869344
205	0x3e9c0284	0.3047067
206	0xbe9da1c3	-0.30787477
207	0xbdd1f811	-0.10252393
208	0xbe24f0e4	-0.16107517
209	0xbe4cff53	-0.20019273
210	0xbebdb34e	-0.3705086
211	0xbdb1a743	-0.08674481
212	0xbe19809c	-0.14990467
213	0xbd80dd6f	-0.06292235
214	0xbea16c19	-0.31527784
215	0xbd127e50	-0.035764992
216	0xbd5d6881	-0.05405474
217	0x3e173cce	0.14769289
218	0x3e154aee	0.14579365
219	0xbe8cfe19	-0.2753761
220	0xbd095ff5	-0.033538777
221	0xbcd0030c	-0.025392078
222	0xbd992e18	-0.07479495
223	0xbeb12f07	-0.34606192
224	0xbaf9a710	-0.0019046981
225	0x3e7a630f	0.2445185
226	0xbc931673	-0.01795504
227	0xbf101242	-0.5627786
228	0xbe1becf8	-0.15227115
229	0x3f3487c3	0.70519656
230	0xbe551f08	-0.20812619
231	0xbeeb731f	-0.45986268
232	0x3dec8722	0.11549212
233	0x3c04d97d	0.008108494
234	0xbe987deb	-0.29783568
235	0xbea70c14	-0.32626402
236	0xbe64b07c	-0.22332948
237	0xbea4fe56	-0.32225293
238	0xbdc3d859	-0.095627494
239	0x3e8002c2	0.25002104
240	0xbe48cdfa	-0.19609824
241	0x3ec9eae4	0.3943702
242	0x3e28542f	0.16438363
243	0xbee3794f	-0.4442849
244	0xbde4f8e0	-0.11180282
245	0xbf4504db	-0.76960534
246	0xbe3e7b5a	-0.18601742
247	0xbec20174	-0.37891734
248	0xbe51a7f7	-0.2047423
249	0xbbb9c145	-0.0056687915
250	0xbf01feeb	-0.507796
251	0x3d71dc10	0.05904776
252	0x3daa9277	0.08328717
253	0xbdcd857d	-0.100352265
254	0x3db61cd6	0.08892219
255	0x3e665051	0.22491576

net.0.bias f4 [120]
0	0xbea25002	-0.31701666
1	0x3eec6fc7	0.4617903
2	0xbedc6f25	-0.43053547
3	0x3fa45ba2	1.2840464
4	0x3fa91b98	1.3211546
5	0xbe57d954	-0.21078998
6	0x3f66b68b	0.9012229
7	0x3dc28679	0.09498305
8	0xbeb696fe	-0.35662073
9	0x3efff0af	0.49988315
10	0x3f8ffcef	1.1249064
11	0x3f92a405	1.1456305
12	0x3e9ed55b	0.31022152
13	0x3fa033f3	1.2515854
14	0x3f764b88	0.96209
15	0xbecbe316	-0.3982169
16	0x3fa728dc	1.3059344
17	0x3f532257	0.82474273
18	0x3f91d9b3	1.1394562
19	0xbe9ab664	-0.30217278
20	0xbec8573d	-0.39129058
21	0x3f3a51eb	0.72781247
22	0x3fa13b4f	1.2596225
23	0x3f97676e	1.1828439
24	0xbf23e6ce	-0.64024055
25	0x3f881be6	1.0633514
26	0xbea4918c	-0.32142293
27	0xbeea146e	-0.45718712
28	0x3e926f1e	0.286004
29	0x3e9cb1a5	0.30604282
30	0x3f6c86bf	0.92393106
31	0xbe8b581f	-0.2721567
32	0x3f920458	1.1407576
33	0x3fb4f43f	1.4137038
34	0x3fa7e592	1.3116934
35	0x3f000bdc	0.50018096
36	0x3f8cf7a4	1.1013074
37	0x3f9a59bd	1.2058636
38	0xbe5752e8	-0.2102772
39	0xbeec37d5	-0.46136346
40	0x3d2ccf4d	0.042189885
41	0xbe87d0e0	-0.26526546
42	0xbe013f31	-0.12621762
43	0x3f94a653	1.1613258
44	0x3f21bbda	0.63177264
45	0xbed0872f	-0.40728137
46	0x3f98965f	1.192089
47	0x3f64e922	0.8941823
48	0xbd003fe3	-0.031310927
49	0x3f68ce40	0.9093971
50	0x3f90663a	1.1281197
51	0x3f9a0be8	1.2034883
52	0x3f8e4c5a	1.1117051
53	0xbed70dc2	-0.42002684
54	0x3f261486	0.64875066
55	0x3edc0ba2	0.42977625
56	0xbe447fab	-0.19189326
57	0x3f91ecb9	1.1400367
58	0xbe1e202c	-0.1544196
59	0xbe8cc8fb	-0.27497086
60	0x3fa65648	1.2995081
61	0x3f1747c4	0.5909388
62	0x3fa08bef	1.2542704
63	0xbe85fa24	-0.26167405
64	0xbedd88cf	-0.4326844
65	0xbeac815f	-0.33692452
66	0x3f8598a3	1.0437206
67	0x3f4aafc5	0.79174453
68	0x3f1711f0	0.59011745
69	0x3f6855bc	0.9075582
70	0x3f40ef05	0.75364715
71	0x3f900631	1.125189
72	0x3f601bb0	0.8754225
73	0x3f931dce	1.1493471
74	0x3fa52b8c	1.2903914
75	0xbec479eb	-0.38374266
76	0x3f7c6276	0.9858774
77	0x3fa59b8d	1.2938095
78	0x3f9b60c3	1.2138904
79	0x3fa14c35	1.2601382
80	0x3fafcbc1	1.3734056
81	0xbe97dade	-0.2965917
82	0xbeb0bb50	-0.34517908
83	0xbea2e5bb	-0.31815895
84	0xbc95edb6	-0.018301826
85	0x3fa027bd	1.2512127
86	0x3f8816c8	1.0631952
87	0x3f948d23	1.1605572
88	0x3f8271f2	1.0191023
89	0xbeaa4c02	-0.33261114
90	0xbeb9b5e8	-0.36271596
91	0x3f9c96b3	1.223349
92	0x3f6510a7	0.89478534
93	0x3f9903cd	1.1954285
94	0x3f3c6d25	0.7360404
95	0xbe354728	-0.17702925
96	0xbe97ed82	-0.29673392
97	0xbc7d696c	-0.015467029
98	0x3faa1a08	1.3289194
99	0x3f9579a9	1.1677753
100	0x3f8c16cf	1.0944461
101	0x3f9cb515	1.2242762
102	0x3fa90796	1.320544
103	0x3f6eafe9	0.9323717
104	0x3efbb9b3	0.49165115
105	0x3fa6b9af	1.3025416
106	0x3f890e41	1.0707475
107	0x3eb41c7f	0.3517799
108	0x3f91070d	1.1330277
109	0xbec3436f	-0.38137385
110	0xbebe3b23	-0.37154493
111	0x3f8847af	1.0646876
112	0x3fa26a71	1.2688733
113	0x3fac7cb9	1.3475562
114	0xbed22a0e	-0.4104771
115	0xbf05da54	-0.5228627
116	0xbeb01ca1	-0.34396842
117	0xbec4ed6c	-0.3846239
118	0x3f617702	0.88072217
119	0x3f99a109	1.2002269

net.2.weight f4 [30, 120]
0	0x3dc61441	0.09671832
1	0x3df90a1c	0.12160131
2	0x3d0616df	0.032736655
3	0xbe76c5b3	-0.24098854
4	0x3d927807	0.071518
5	0x3d48e126	0.049042843
6	0xbd25dead	-0.040495563
7	0x3d9f1832	0.07768287
8	0x3d2be3e7	0.04196539
9	0x3db8ebed	0.09029374
10	0xbe08f737	-0.13375555
11	0xbdf81b19	-0.121145435
12	0x3da7a1b6	0.08185141
13	0xbde84bd0	-0.11342585
14	0xbe2c8add	-0.16849847
15	0x3dafba21	0.08580423
16	0xbd6420c3	-0.055695307
17	0xbda96838	-0.08271831
18	0xbe461fe8	-0.19348109
19	0xbe0434b2	-0.12910727
20	0x3d52f25e	0.05150067
21	0xbe226c51	-0.15861632
22	0xbe7ff360	-0.24995184
23	0xbdc8d20e	-0.0980569
24	0x3e214a1c	0.15750927
25	0x3b0ffc70	0.0021970533
26	0x3d89b5bf	0.067241184
27	0x3db29b5a	0.08721037
28	0xbceecfe4	-0.029151864
29	0xbcd04965	-0.025425622
30	0xbd9e1212	-0.077182904
31	0xbd6ce1f0	-0.05783266
32	0x3e3287f8	0.1743468
33	0xbd3f7b7b	-0.04674862
34	0xbe4b6261	-0.19861747
35	0x3d5b84d4	0.05359347
36	0xbe5c207d	-0.21496768
37	0xbddc7e4b	-0.10766276
38	0xbe229cb3	-0.15880089
39	0xba9525bb	-0.0011379042
40	0x3e72c4ce	0.23707888
41	0xbe31cac4	-0.17362505
42	0xbe74d00d	-0.2390749
43	0xbdae9e2f	-0.08526265
44	0xbd3a9bc0	-0.04555869
45	0x3dba8551	0.09107459
46	0xbd7a300f	-0.06108099
47	0x3d8b21f1	0.06793583
48	0x3e0afcbd	0.13572975
49	0xbe2d8a2c	-0.1694724
50	0xbdbcc998	-0.092181385
51	0xbde13be4	-0.10997751
52	0xbe0dd06c	-0.13849038
53	0x3d08a9d5	0.03336509
54	0xbcb97c91	-0.022642406
55	0x3db80e4b	0.08987101
56	0xbac3a10d	-0.0014925316
57	0x3cb4d120	0.022072375
58	0x3dc1a4ee	0.09455286
59	0xbeb1cd29	-0.34726837
60	0xbd0e1e06	-0.0346966
61	0x3da9308b	0.08261212
62	0x3c17ee03	0.009273055
63	0x3c2cb426	0.010540998
64	0x3dda1d74	0.10650149
65	0x3cc075d1	0.02349368
66	0xbe1d8dac	-0.15386075
67	0xbd09856f	-0.033574518
68	0xbcf80aed	-0.030278647
69	0xbdba832c	-0.0910705
70	0xbd8f761e	-0.07004951
71	0xbe2e02bb	-0.16993229
72	0xbdc864f0	-0.09784877
73	0xbe73461c	-0.23757213
74	0xbe79fd4b	-0.2441303
75	0x3e354b95	0.17704614
76	0x3c7d7936	0.0154707935
77	0xbe772a3c	-0.24137205
78	0xbd6906f8	-0.05689141
79	0xbec4b389	-0.38418224
80	0x3d6795a5	0.056539197
81	0xbe26d4f9	-0.1629218
82	0xbd9dd90d	-0.07707415
83	0xbd67c515	-0.056584436
84	0x3d45066e	0.048101835
85	0xbe15b28b	-0.1461889
86	0x3d8288b5	0.06373731
87	0xbd4927be	-0.049110167
88	0xbdba1b33	-0.09087219
89	0x3d1627e7	0.036659148
90	0x3c32e150	0.0109179765
91	0xbd08f6ed	-0.03343861
92	0x3c9cb9ee	0.019131627
93	0xbe30c2de	-0.17261836
94	0x3d5274fa	0.05138109
95	0xbc0bafbe	-0.008525787
96	0x3d345e90	0.044035494
97	0x3dd70a4c	0.10500011
98	0xbe897238	-0.26844954
99	0xbdf0ff59	-0.11767454
100	0xbe5589fc	-0.20853418
101	0xbd037abf	-0.03209948
102	0xbd1a1c6f	-0.037624773
103	0x3b3c39cd	0.0028720975
104	0xbe1bde3c	-0.15221494
105	0xbe51e19b	-0.20496218
106	0xbe4b8f76	-0.19878945
107	0x3ddf040e	0.10889445
108	0xbdfdabe9	-0.12386305
109	0xbdcd5fa4	-0.100280076
110	0x3dd8aeef	0.10580241
111	0x3d383cc3	0.044979822
112	0xbce082c4	-0.027406104
113	0x3db962ec	0.09052071
114	0x3e179010	0.14801049
115	0xbc9c683f	-0.019092677
116	0x3e0a5891	0.13510348
117	0xbe4c8360	-0.1997199
118	0xbec4f26f	-0.38466212
119	0xbdf0ae38	-0.117519796
120	0xbd02c498	-0.031925768
121	0xbdab879e	-0.08375476
122	0xbea2f6bf	-0.31828877
123	0x3f1dc093	0.6162197
124	0x3f28ff78	0.66014814
125	0x3e84a6d0	0.25908518
126	0x3f4ddf10	0.8041849
127	0x3e976769	0.29571083
128	0x3d76f050	0.060287774
129	0x3ed436a4	0.41447937
130	0x3f2ddfae	0.67919433
131	0x3f1704db	0.58991784
132	0x3e97f841	0.2968159
133	0x3f1519a3	0.58242244
134	0x3e21d886	0.15805253
135	0xbe07283d	-0.13198943
136	0x3f19016d	0.597678
137	0x3ed4b37e	0.41543192
138	0x3f33be22	0.70211995
139	0x3d6d3093	0.057907652
140	0xbd80cc1d	-0.062889315
141	0x3ebb3a83	0.36568078
142	0x3ee58973	0.44831428
143	0x3f0bc360	0.54594994
144	0xbe74bc41	-0.23899938
145	0x3f262dd0	0.64913654
146	0xbeeeece3	-0.46665105
147	0xbda8b4e0	-0.08237624
148	0x3d96fe7c	0.07372758
149	0x3dad5b59	0.08464689
150	0x3e9032a4	0.28163636
151	0x3c45c267	0.012070275
152	0x3f1d58e9	0.6146379
153	0x3f477237	0.77908653
154	0x3ee88a92	0.4541822
155	0x3f033401	0.51251227
156	0x3efc06b4	0.49223864
157	0x3ec33445	0.38125816
158	0x3e26efcd	0.16302414
159	0xbe6444f7	-0.22291933
160	0x3e43a56a	0.19106069
161	0xbdf1ac38	-0.11800426
162	0xbefebdfb	-0.4975432
163	0x3f1244d7	0.5713629
164	0xbe147ee6	-0.14501533
165	0xbe872cf0	-0.26401472
166	0x3f02c299	0.5107818
167	0x3f3cb93e	0.7372016
168	0xbe4172f0	-0.18891501
169	0x3e31b418	0.17353857
170	0x3f19273f	0.5982551
171	0x3f6d7358	0.92754126
172	0x3f025ed4	0.50925946
173	0xbe714074	-0.23559743
174	0x3e59c12b	0.21265094
175	0x3edaa55b	0.4270428
176	0xbe35f54e	-0.17769358
177	0x3f00a5b6	0.50252855
178	0xbc017209	-0.007900723
179	0x3dc0e5bf	0.094188206
180	0x3f290116	0.6601728
181	0x3ef62b33	0.48079833
182	0x3f2c26c2	0.6724664
183	0xbc7a7f67	-0.015289164
184	0xbe79fcc7	-0.24412833
185	0xbe1c6a2d	-0.15274878
186	0x3f21806b	0.63086575
187	0x3ee4d557	0.44694015
188	0x3ee5f62d	0.4491438
189	0x3ebabee0	0.3647375
190	0x3cd8fc9e	0.026487645
191	0x3f11140a	0.566712
192	0x3f422128	0.7583184
193	0x3f069059	0.5256401
194	0x3f21584a	0.63025343
195	0x3cd40e31	0.025885673
196	0x3f0159d2	0.5052768
197	0x3f7551d6	0.95827997
198	0x3f03efff	0.5153808
199	0x3f4a643a	0.79059184
200	0x3f7385c9	0.95126015
201	0x3dda1417	0.10648363
202	0x3d6ffd1e	0.058591
203	0x3d213a45	0.03936221
204	0xbeda18f3	-0.4259716
205	0x3edece1e	0.4351663
206	0x3f15c9b5	0.58510906
207	0x3ef8464e	0.48491138
208	0x3edf7002	0.43640143
209	0xbcf7173e	-0.03016245
210	0xbead6cce	-0.33872074
211	0x3f188855	0.59583026
212	0x3e8c252c	0.2737211
213	0x3f39d6d6	0.7259344
214	0x3f2ce604	0.67538476
215	0xbdd03a05	-0.10167316
216	0xbd82c7a3	-0.06385734
217	0xba7b36cb	-0.0009583055
218	0x3f225a5d	0.63419133
219	0x3eee1fd1	0.4650865
220	0x3ef4e08e	0.47827572
221	0x3ec8fad2	0.3925386
222	0x3f7b04a3	0.9805395
223	0x3ef6afa6	0.48180884
224	0x3e850226	0.25978202
225	0x3f83fb52	1.0311072
226	0x3f65a82d	0.8970974
227	0x3e2932f2	0.1652334
228	0x3f4ed510	0.8079386
229	0xbdb27419	-0.0871355
230	0x3dad4295	0.08459965
231	0x3ec10802	0.37701422
232	0x3ead3f8d	0.33837548
233	0x3f0d4389	0.55181175
234	0xbcdeddbb	-0.027205339
235	0x3b39d922	0.002835818
236	0xbded7f0d	-0.11596499
237	0xbd359c40	-0.044338465
238	0x3e15546f	0.1458299
239	0x3ecbc9e7	0.39802477
240	0x3d123a8b	0.035700362
241	0x3d7910a8	0.0608069
242	0x3cdbde61	0.026839437
243	0xbde37f82	-0.111083046
244	0xbd2fc471	-0.04291195
245	0xbd94836b	-0.072516285
246	0x3d8d4489	0.06897838
247	0x3e5bac77	0.21452509
248	0x3e4a516f	0.19757627
249	0x3dc12a88	0.0943194
250	0xbd50bbf1	-0.050960485
251	0xbe504445	-0.20338543
252	0x3d0eb4c7	0.03484037
253	0xbdb872d0	-0.09006274
254	0xbe1c48d1	-0.15262152
255	0x3e3999aa	0.18125024

net.2.bias f4 [30]
0	0xbd5b031d	-0.053469766
1	0x3f8ea1f4	1.1143174
2	0xbe424bde	-0.18974254
3	0xbe4a998d	-0.19785137
4	0x3f758cb6	0.9591783
5	0xbdbf21d5	-0.09332625
6	0x3e19f5ab	0.15035121
7	0x3f9e0ca1	1.2347604
8	0xbe0aafb0	-0.13543582
9	0x3f9f3639	1.2438422
10	0xbe1b293b	-0.15152447
11	0xbe1da1d8	-0.1539377
12	0xbe199d77	-0.15001474
13	0x3f60dedc	0.87840056
14	0x3f816518	1.0108976
15	0x3f992f8f	1.1967639
16	0x3f94c885	1.1623694
17	0x3f3f41d5	0.74709827
18	0x3f893a2f	1.0720881
19	0x3f9c54c3	1.2213367
20	0xbd7de6b6	-0.0619876
21	0x3f942edf	1.1576804
22	0x3f8be288	1.0928507
23	0x3e215147	0.15753661
24	0x3da59cf0	0.08086574
25	0x3f98a50f	1.1925372
26	0x3f94bea8	1.1620684
27	0xbe10bbac	-0.14134091
28	0x3f467e6f	0.7753667
29	0xbe4edf36	-0.20202336

net.4.weight f4 [2, 30]
0	0xbdd7a9d6	-0.105304405
1	0x3f2f9a4e	0.68594825
2	0xbc65c5e7	-0.014024234
3	0xbcbc4a8c	-0.022984765
4	0x3eabeb1e	0.33577818
5	0xbdae3b8c	-0.085074514
6	0xbc21f9c3	-0.009886208
7	0x3f2d4ca8	0.67695093
8	0x3de88014	0.11352554
9	0x3f39cf66	0.7258209
10	0xbd5ff4b1	-0.054676715
11	0xbd8aba9b	-0.067738734
12	0xbe7ce1c3	-0.24695496
13	0x3ec44a7e	0.38338083
14	0x3f3c8c59	0.73651654
15	0x3f269643	0.6507303
16	0x3f54be74	0.8310311
17	0x3e86febb	0.2636622
18	0x3f179d54	0.5922444
19	0x3f45aadd	0.7721384
20	0xbe5a2ffe	-0.2130737
21	0x3f3695e4	0.71322465
22	0x3f3ddf0d	0.74168473
23	0xbc4e2858	-0.012582861
24	0x3e154716	0.14577898
25	0x3f49d7e4	0.7884505
26	0x3f098334	0.53715825
27	0x3ca374a2	0.019953076
28	0x3efc5291	0.49281743
29	0xbd9fe3af	-0.07807099
30	0xbd14b4b4	-0.036305144
31	0x3f388952	0.72084534
32	0xbe89981f	-0.26873872
33	0xbe7eab30	-0.2486999
34	0x3f5283e3	0.82232493
35	0xbcdbc39c	-0.026826672
36	0x3eedfd0c	0.46482122
37	0x3f29692f	0.6617612
38	0xbe49181a	-0.196381
39	0x3f47a23c	0.77981925
40	0x3d3c4a87	0.045969512
41	0x3d716286	0.05893185
42	0x3c065293	0.008198398
43	0x3f417673	0.75571364
44	0x3e7092f8	0.23493564
45	0x3f3a3770	0.7274084
46	0x3ed1b2b4	0.40956652
47	0x3f39a033	0.7251007
48	0x3f49d362	0.7883817
49	0x3f2b9014	0.6701672
50	0xbdb9f836	-0.090805456
51	0x3f1572fd	0.58378583
52	0x3f355d84	0.7084582
53	0x3ed9904d	0.42492905
54	0xbdaad287	-0.08340936
55	0x3efa1cc8	0.48850083
56	0x3f2af7fd	0.6678465
57	0x39906543	0.00027541266
58	0x3df63927	0.1202262
59	0xbe3da3ee	-0.18519565

net.4.bias f4 [2]
0	0x3f665bea	0.89984
1	0x3f630562	0.8868009
