runs/20250609_034323/models/best_model_at_train_round_3_epoch_70.pt (torch, 36081 bytes, 6 tensors)

net.0.weight f4 [120, 36]
000000 ec 73 9d 3d 63 ec 23 be 4e 57 a8 bd ab 80 0c 3d
       0.07688126 -0.16008143 -0.08219777 0.034302395
000010 70 36 c8 bd 6f 7c 1d 3b f6 a5 8c bc 7f f5 10 be
       -0.09776008 0.0024030467 -0.01716898 -0.1415615
000020 44 14 99 be c7 32 3a be 89 80 4c be 8f a3 9f 3d
       -0.29898274 -0.18183433 -0.19970907 0.07794868
000030 fd cf 28 bd 08 43 e5 bd 83 ff 0c be 4f 7e db 3d
       -0.041213978 -0.11194426 -0.13769345 0.10717451
000040 98 ce db bd 0c dc f5 bb 28 bd 9d bd b0 c7 14 be
       -0.10732764 -0.0075030383 -0.07702094 -0.145293
000050 8e cf 3f be ff c5 96 be 6f fb fd bc 62 3b b4 3d
       -0.1873152 -0.29447934 -0.031003682 0.08800389
000060 86 bb 34 3e 43 2c 65 be ba 4e 08 be da 2c 5c be
       0.1764966 -0.22380166 -0.13311282 -0.21501485
000070 ab 94 0f be f9 ce b4 bd d8 38 8e 3d 57 db c1 3c
       -0.14021556 -0.088285394 0.06944436 0.02366416
000080 3a d6 d9 be 74 8c 53 be c1 17 7e be 41 7c a7 be
       -0.42546254 -0.20659047 -0.24813749 -0.32711986
000090 05 66 30 bf 7c 24 d7 be f6 42 8b bb ff a0 0d be
       -0.6890567 -0.42020023 -0.0042499257 -0.13830946
0000a0 ce fc e7 bd c8 3a dc bd 2d 3d ba bc be 53 0e be
       -0.113275155 -0.10753399 -0.022734249 -0.13899133
0000b0 97 87 38 3e c5 91 8d 3e 08 af a2 be 2a f1 0f bf
       0.18020473 0.27650276 -0.31774163 -0.5622736
0000c0 a4 e0 4b be 2a da 15 3e b8 81 22 be 6d 88 47 be
       -0.19909912 0.14634004 -0.15869796 -0.19485636
0000d0 1f f9 6c bd 64 6d 18 bf 2a d4 2e bd 61 4a 11 3d
       -0.057854768 -0.59541917 -0.042682804 0.035471324
0000e0 2f 76 34 be 66 73 ba 3e f9 51 2c 3e 46 d3 fa be
       -0.17623208 0.36416167 0.16828145 -0.48989314
0000f0 cb 05 6f be b8 66 82 be 53 81 95 bd 3f 1c 54 be
       -0.23342054 -0.25468993 -0.07300057 -0.207139
000100 ff 4c a7 be 96 89 18 bf a5 35 8d 3d 62 bc ab 3e
       -0.3267593 -0.5958494 0.068949975 0.33542162
000110 ab 20 a0 bd a1 6d 16 3e 5c 3c 9a bc 77 7a 97 be
       -0.07818731 0.14690258 -0.01882761 -0.2958562
000120 8d e8 47 be 17 fa 64 be 62 2d cc bd de f0 08 3d
       -0.19522305 -0.22361027 -0.099695936 0.033432834
000130 89 73 d8 3d 3f 8b 2c bd 10 c4 8d bd c0 5c a6 be
       0.105689116 -0.042124983 -0.069221616 -0.32492638
000140 0b 36 85 be 7b c8 a7 bd a4 a2 73 be 5f 6f 09 bf
       -0.26017794 -0.081925355 -0.23792511 -0.53685564
000150 1e c1 cc 3d e6 ed 42 3e ca 79 a0 3d d7 8d 42 be
       0.09997772 0.19036064 0.078357294 -0.1899942
000160 dd 30 3d be e7 d9 89 be a3 f6 35 be cb 84 8e bd
       -0.18475671 -0.2692406 -0.17769866 -0.06958922
000170 6f d4 32 bc 8c 49 40 3e 19 33 de bd 40 05 0c be
       -0.010914906 0.18778056 -0.1084959 -0.13673878
000180 6f 35 3e 3d 34 5c 66 be 95 51 96 be 8d da 22 bd
       0.046437677 -0.2249611 -0.29359117 -0.039759208
000190 a6 04 79 be e1 6c ce be 39 8e 30 be eb cb c2 3c
       -0.2431818 -0.40317443 -0.17241754 0.023778876
0001a0 ee c4 b5 bb 34 47 e5 3c 62 bf 1e be 0a 60 b0 bd
       -0.0055471575 0.027988054 -0.15502694 -0.08612068
0001b0 a2 3b 70 be 5d 8f 88 bd c2 67 52 bd 82 25 82 3e
       -0.23460248 -0.066679694 -0.051368482 0.2541924
0001c0 64 fb be 3e f4 f3 cb bc 83 4a 9e 3e 2a 30 bd 3e
       0.3730117 -0.0248966 0.30916223 0.3695081
0001d0 93 38 de 3d f7 66 84 3e 5d 38 c5 3e 92 d1 a6 bd
       0.108506344 0.25859806 0.38519564 -0.08145441
0001e0 a4 a2 f7 be fb ec 8b be 11 6f 93 bd a0 fc 0c 3e
       -0.48366272 -0.2732924 -0.071989186 0.13768244
0001f0 8a c5 fc 3d ab ee 06 3e 17 22 99 3e 35 fe de 3d
       0.12342365 0.13176982 0.2990882 0.1088833
000200 b5 c4 11 3e 2e 10 92 3e f3 16 aa 3e 25 5e ac 3d
       0.14235194 0.2852797 0.33220634 0.08416394
000210 80 fe b8 be b0 c7 cb bd 04 c6 67 3d 61 0e 8b bd
       -0.36131668 -0.09950197 0.056585327 -0.06789852
000220 83 3d 82 bd 94 df cc 3e aa 30 6f 3e 16 40 f2 3c
       -0.06359389 0.40014327 0.23358408 0.029571574
000230 80 27 35 3e a0 75 02 be c2 97 77 3e b8 4a 1f 3d
       0.1769085 -0.12740183 0.24178985 0.038889617
000240 8b 20 58 3d d5 20 2a 3e da 25 7f 3d 9e d3 5a be
       0.05276541 0.16614087 0.062291957 -0.21369788
000250 f5 67 d4 bd 55 e5 34 3e a6 0d 9d bd 9f 17 59 3e
       -0.10371391 0.17665608 -0.07668619 0.21200417
000260 a5 ac 68 3d 75 ac 6e 3e 2e 3c e8 3e e7 7c 74 3e
       0.05680527 0.23307975 0.45358413 0.23875771
000270 dc 47 0e 3d 78 b9 5d 3e 68 ee b5 3e a0 2a 96 3e
       0.0347365 0.21652782 0.35533452 0.29329395
000280 a7 1d 09 3d 7d 30 86 3e f9 d2 b6 3d 08 51 81 3e
       0.033475544 0.2620887 0.089269586 0.25257134
000290 58 5e 1b be 6c b8 b5 3e f4 82 b7 3d e3 ec bd 3e
       -0.15172708 0.35492265 0.08960524 0.37094793
0002a0 de b4 11 3e f2 70 d1 3d 4f 2a b4 3c df da ae 3d
       0.14229152 0.10226621 0.02199283 0.0853784
0002b0 38 80 3b 3e 5c 7f cb bd 79 07 eb 3c c6 26 50 3d
       0.1831063 -0.09936401 0.028690087 0.050818227
0002c0 0c f7 91 bc b3 9d c9 3d 08 36 63 3e b4 15 91 3e
       -0.017817996 0.09844532 0.2218858 0.2833687
0002d0 1a 71 b3 bd b3 97 e1 3e d1 eb fe be e7 79 16 be
       -0.08761807 0.4406105 -0.4978929 -0.1469494
0002e0 8b ec a5 3e f8 c0 a8 bd 04 75 9f bc bc f2 33 3d
       0.3240703 -0.08239931 -0.019464977 0.04393266
0002f0 da f0 86 be b9 e6 b3 bd e2 75 17 be 7d 0e 32 be
       -0.2635563 -0.08784241 -0.14791062 -0.1738834
000300 e2 91 22 3f c8 d0 01 bd 74 5e a3 be 42 16 6f be
       0.6350385 -0.03169325 -0.31908 -0.23348334
000310 87 93 30 3e 0c 93 01 3d 58 50 60 bd 4b 83 58 bd
       0.17243777 0.031634375 -0.05476412 -0.052859586
000320 2a c5 a0 be 07 db 82 be d5 82 b2 be 08 44 1f be
       -0.31400424 -0.2555773 -0.34865442 -0.15553296
000330 9e 45 b3 3e 9c f2 ca 3e 9e c0 ea be 5b 32 5f 3d
       0.3501405 0.3963822 -0.4585008 0.054491382
000340 ef f4 24 be 5d ff 4c be 4e b3 bd be 43 a7 b1 bd
       -0.1610906 -0.20019288 -0.3705086 -0.08674481
000350 ee e0 a2 be 60 d5 72 be 66 00 ac be f6 3d f5 bd
       -0.31812233 -0.23714209 -0.33594054 -0.11974709
000360 69 de 41 be 9b 8c e7 3d bd ea 23 3e e5 54 b5 be
       -0.18932499 0.11306115 0.16007514 -0.35416332
000370 c6 44 0c be 76 92 52 bd 7e eb 59 be 33 62 78 be
       -0.1369811 -0.051409207 -0.2128124 -0.2425621
000380 01 1e 3a bc b2 de 7b 3e 9e ea 87 3d 71 b5 35 bf
       -0.011359693 0.2459667 0.066365466 -0.7097998
000390 7e 78 48 be 20 85 22 3f e0 3b ed be 12 70 0d bf
       -0.19577214 0.6348438 -0.46334743 -0.5524913
0003a0 3f d1 13 3d 3d c9 23 bd e2 ef c7 be cc 07 b4 be
       0.036088225 -0.039986838 -0.39050204 -0.351622
0003b0 33 68 97 be 1b 8b 81 be f4 64 26 bd 4c c1 6d 3e
       -0.29571685 -0.25301442 -0.04062362 0.23218268
0003c0 6d 9f 8a be af d9 a5 3e 39 1c e5 3d e7 14 0a bf
       -0.27074757 0.32392642 0.11187024 -0.53938144
0003d0 6d 98 ae bd 3b c7 6e bf f2 a7 80 be c4 f3 ae be
       -0.08525167 -0.9327275 -0.25128132 -0.34170353
0003e0 6f 5c 60 be a5 d6 cf 3d 3b 70 d2 be dd 52 7e be
       -0.2191026 0.10148362 -0.4110125 -0.24836297
0003f0 98 b2 0d bc 45 a4 3b bd 2d 94 d6 3d d8 0a 99 3e
       -0.008648537 -0.045810957 0.10477481 0.29891086

net.0.bias f4 [120]
000000 22 ec a4 be bd a1 39 3f b9 e1 dd be d5 89 b7 3f
       -0.32211405 0.7251242 -0.43336275 1.4338938
000010 f4 31 bc 3f 93 e2 54 be e3 f6 85 3f 33 38 3d 3e
       1.4702744 -0.20789556 1.0465969 0.1847847
000020 cb ff a6 be 88 79 2d 3f e0 5d a3 3f fd 3f a7 3f
       -0.3261703 0.67763567 1.2763023 1.3066403
000030 30 14 e4 3e 83 00 b2 3f 06 12 91 3f 6d e3 cb be
       0.44546652 1.3906406 1.1333625 -0.3982195
000040 7c ab b9 3f ec db 7e 3f 22 f8 a5 3f c3 e8 9e be
       1.4505458 0.99554324 1.2966349 -0.31036958
000050 0c d4 c8 be 6a 90 6d 3f 0c 5c b5 3f 31 8a aa 3f
       -0.3922428 0.92798483 1.4168715 1.3323423
000060 7d 13 24 bf a5 c6 98 3f 6e c9 a7 be 7b 11 eb be
       -0.64092237 1.1935622 -0.32770866 -0.45911774
000070 31 3e 00 3f d3 df e6 3e 93 0e 89 3f 1f 58 8b be
       0.50094897 0.4509264 1.0707573 -0.2721567
000080 d1 99 a6 3f 68 2d c8 3f c5 1c bb 3f 07 15 25 3f
       1.3015691 1.5638857 1.4618155 0.6448521
000090 c5 9f a0 3f 80 8c ad 3f 63 53 57 be 97 d9 ed be
       1.2548758 1.3558502 -0.21027903 -0.4645507
0000a0 6f 5b 2e bd 4d 66 88 be 69 e1 31 be 2c 82 a6 3f
       -0.042567667 -0.2664055 -0.17371143 1.3008475
0000b0 fa 10 4f 3f 6a fb d1 be d9 b8 ab 3f 61 48 83 3f
       0.8088528 -0.41012126 1.3415786 1.0256463
0000c0 34 62 c4 bd a1 41 89 3f 80 bf a3 3f 02 58 ae 3f
       -0.09589043 1.0723153 1.2792816 1.3620608
0000d0 26 2f a0 3f 81 7f d8 be ec a0 4e 3f 2c 8e 10 3f
       1.2514389 -0.42284778 0.807143 0.5646694
0000e0 ee 97 b2 be 1b 1f a5 3f 9a a4 69 be 26 29 90 be
       -0.34881538 1.2900118 -0.22816697 -0.28156394
0000f0 be 6d b9 3f 3b 17 3a 3f 9e d2 b4 3f 63 fa 85 be
       1.4486616 0.72691697 1.4126775 -0.26167592
000100 e9 cc de be 13 32 ae be 77 62 9e 3f 73 d7 7b 3f
       -0.4351571 -0.3402258 1.2373799 0.98375624
000110 1c f6 4d 3f 6a 49 87 3f e5 1e 6b 3f 1e 21 a5 3f
       0.8045366 1.0569279 0.91844016 1.2900732
000120 de 86 8a 3f 26 7f a4 3f e9 30 b8 3f 4d 56 c5 be
       1.0822408 1.2851303 1.4389926 -0.38542405
000130 df c2 8f 3f f3 a9 b8 3f 7f 76 ae 3f fd 22 b4 3f
       1.1231345 1.4426864 1.3629912 1.4073178
000140 1e 50 c6 3f a6 ad 97 be 59 be b3 be a6 cd b9 be
       1.54932 -0.2962467 -0.3510616 -0.3628971
000150 67 58 6b bd eb 49 b3 3f e7 08 9c 3f 58 5f ab 3f
       -0.057457354 1.4006933 1.2190217 1.3388472
000160 0e 18 97 3f 3e f0 a7 be e0 95 bb be e6 a5 af 3f
       1.1804216 -0.32800478 -0.36637783 1.3722503
000170 bc f1 84 3f 6b 1d ac 3f 70 a9 6e 3f 95 de 1c be
       1.0386271 1.3446478 0.9322729 -0.15319283
000180 a6 93 90 be 29 5a 65 bd d6 cf bc 3f 75 74 a9 3f
       -0.28237647 -0.055994187 1.4750926 1.3238665
000190 e3 fc a0 3f e0 1f b0 3f f9 83 be 3f 57 d7 91 3f
       1.2577175 1.3759727 1.4884025 1.1393842
0001a0 48 e2 36 3f df 3f bc 3f 23 a4 9c 3f 80 45 1c 3f
       0.7143903 1.4706992 1.223759 0.6104355
0001b0 01 cf a3 3f 0e 45 c3 be 8f d7 c3 be 01 63 9e 3f
       1.2797548 -0.38138622 -0.38250396 1.2373964
0001c0 a8 c3 b5 3f 93 be bf 3f 52 2a d2 be 8d ff 1e bf
       1.4200335 1.4980034 -0.41047913 -0.6210869
0001d0 fe bb b8 be 23 99 c5 be 6f 56 84 3f d0 1d af 3f
       -0.36080927 -0.38593397 1.0338877 1.3680973

net.2.weight f4 [30, 120]
000000 41 14 c6 3d 1c 0a f9 3d fa 16 06 3d b1 c5 76 be
       0.09671832 0.12160131 0.032736756 -0.24098851
000010 35 78 92 3d 26 e1 48 3d b3 de 25 bd 50 18 9f 3d
       0.07151834 0.049042843 -0.040495586 0.07768309
000020 13 e4 2b 3d 0b ec b8 3d 37 f7 08 be 19 1b f8 bd
       0.041965555 0.090293966 -0.13375555 -0.121145435
000030 cb a1 a7 3d c2 4b e8 bd dd 8a 2c be 21 ba af 3d
       0.081851564 -0.11342575 -0.16849847 0.08580423
000040 77 20 64 bd 3a 68 a9 bd e8 1f 46 be a0 34 04 be
       -0.055695023 -0.08271833 -0.19348109 -0.129107
000050 5e f2 52 3d 51 6c 22 be 60 f3 7f be e8 d1 c8 bd
       0.05150067 -0.15861632 -0.24995184 -0.098056614
000060 1c 4a 21 3e 1e 00 10 3b d1 b5 89 3d 6a 9b b2 3d
       0.15750927 0.0021972726 0.06724132 0.08721049
000070 f0 cf ee bc 19 49 d0 bc 15 12 9e bd f0 e1 6c bd
       -0.029151887 -0.02542548 -0.077182926 -0.05783266
000080 10 88 32 3e 3f 7b 3f bd 61 62 4b be 0a 85 5b 3d
       0.17434716 -0.046748396 -0.19861747 0.053593673
000090 7d 20 5c be 45 7e dc bd b3 9c 22 be 6d 20 95 ba
       -0.21496768 -0.107662715 -0.15880089 -0.0011377461
0000a0 de c4 72 3e c4 ca 31 be fc cf 74 be 2f 9e ae bd
       0.23707911 -0.17362505 -0.23907465 -0.08526265
0000b0 c0 9b 3a bd 5a 85 ba 3d d6 2f 7a bd 1c 22 8b 3d
       -0.04555869 0.09107466 -0.061080776 0.06793615
0000c0 c8 fc 0a 3e 2c 8a 2d be 6e c9 bc bd e7 3b e1 bd
       0.13572991 -0.1694724 -0.09218107 -0.109977536
0000d0 6c d0 0d be f0 a9 08 3d 88 7c b9 bc 6d 0e b8 3d
       -0.13849038 0.03336519 -0.022642389 0.089871265
0000e0 5d 9b c3 ba c0 d1 b4 3c f9 a4 c1 3d 29 cd b1 be
       -0.0014923621 0.022072673 0.09455294 -0.34726837
0000f0 b5 1d 0e bd a1 30 a9 3d fe ed 17 3c 26 b4 2c 3c
       -0.0346963 0.08261228 0.00927305 0.010540998
000100 71 1d da 3d 32 76 c0 3c ac 8d 1d be 77 85 09 bd
       0.10650147 0.02349386 -0.15386075 -0.033574548
000110 fa 0a f8 bc 2c 83 ba bd 1e 76 8f bd ae 02 2e be
       -0.030278672 -0.0910705 -0.07004951 -0.1699321
000120 f0 64 c8 bd 1c 46 73 be 23 fd 79 be 9b 4b 35 3e
       -0.09784877 -0.23757213 -0.2441297 0.17704622
000130 e4 79 7d 3c 1e 2a 77 be f8 06 69 bd 7c b3 c4 be
       0.0154709555 -0.2413716 -0.05689141 -0.38418186
000140 20 96 67 3d f9 d4 26 be e9 d8 9d bd 15 c5 67 bd
       0.056539655 -0.1629218 -0.07707388 -0.056584436
000150 9d 06 45 3d 79 b2 15 be 19 89 82 3d 98 27 49 bd
       0.04810201 -0.14618863 0.063738056 -0.049110025
000160 33 1b ba bd 0c 28 16 3d 0b e2 32 3c 83 f6 08 bd
       -0.09087219 0.036659285 0.010918151 -0.033438217
000170 88 ba 9c 3c c3 c2 30 be ed 74 52 3d dc ae 0b bc
       0.019131914 -0.17261796 0.05138104 -0.008525576
000180 c0 5e 34 3d 64 0a d7 3d 2e 72 89 be 16 ff f0 bd
       0.044035673 0.10500029 -0.26844925 -0.11767404
000190 fc 89 55 be b9 7a 03 bd 75 1b 1a bd cc 39 3c 3b
       -0.20853418 -0.03209946 -0.03762384 0.0028720973
0001a0 3c de 1b be 9b e1 51 be 58 8f 4b be 27 04 df 3d
       -0.15221494 -0.20496218 -0.198789 0.10889464
0001b0 ec ab fd bd a4 5f cd bd 0a af d8 3d fc 3c 38 3d
       -0.12386307 -0.100280076 0.10580261 0.044980034
0001c0 c4 82 e0 bc 1d 63 b9 3d 10 90 17 3e 3c 68 9c bc
       -0.027406104 0.090521075 0.14801049 -0.019092672
0001d0 98 58 0a 3e 60 83 4c be 6f f2 c4 be 38 ae f0 bd
       0.13510358 -0.1997199 -0.38466212 -0.117519796
0001e0 29 d8 10 bd a0 8e c4 3d 7e 4a a4 be 19 7a 3a 3f
       -0.035362396 0.09597516 -0.32088083 0.72842556
0001f0 a6 04 45 3f ef 43 95 3e 64 47 7d 3f 47 5a 89 3e
       0.7696022 0.29153392 0.9893706 0.2682669
000200 50 31 81 bd 91 e4 fd 3e f6 af 48 3f 10 b1 34 3f
       -0.06308234 0.49588445 0.78393495 0.70582676
000210 a0 27 a9 3e 51 fc 2d 3f 12 42 85 3e b0 27 07 be
       0.33038044 0.6796313 0.2602697 -0.13198733
000220 f4 81 35 3f be 83 02 3f 69 2c 4e 3f 4b 3d 8d 3d
       0.7090142 0.5098227 0.80536515 0.06896456
000230 bd 9b 80 bd 6c a1 fa 3e 27 6f 11 3f 6b 19 26 3f
       -0.06279705 0.4895128 0.5681023 0.64882535
000240 9f 22 74 be d2 a9 38 3f d1 2c f0 be 86 22 aa bd
       -0.23841332 0.72134125 -0.46909192 -0.08307366
000250 d9 d9 2d 3e 82 5a 05 3e 56 1d c3 3e 67 c2 45 3c
       0.16977634 0.13022807 0.3810832 0.012070275
000260 9b 15 38 3f 06 df 64 3f 3e de 11 3f 52 da 0c 3f
       0.7190797 0.89402807 0.5697974 0.5502063
000270 16 50 19 3f f6 74 f9 3e 5b f0 26 3e f1 65 65 be
       0.59887826 0.48722047 0.16302626 -0.22402169
000280 40 65 d4 3b db 07 9d bd ad 87 fd be d1 36 2e 3f
       0.0064817965 -0.07667514 -0.49517575 0.68052393
000290 83 a9 ca bc 0a 2a 89 be 16 2f 1f 3f a5 66 4f 3f
       -0.024739033 -0.26789886 0.6218122 0.81016
0002a0 fc 76 8d be 9a b1 95 3e 4e 6b 31 3f e5 09 84 3f
       -0.2762984 0.29237062 0.6930436 1.031552
0002b0 79 de 1c 3f 6c da 73 be ca 9d 9b 3e 14 07 fa 3e
       0.61276966 -0.2381379 0.3039382 0.48833525
0002c0 af 50 0a be a9 75 16 3f 5a 76 19 be d5 03 9e 3d
       -0.13507341 0.58773285 -0.14986554 0.07715575
0002d0 45 19 43 3f dd fa 0a 3f 0b 19 4b 3f ea 83 7a bc
       0.76210433 0.54289037 0.7933509 -0.01529024
0002e0 b6 d6 7b be ed d6 1e be a2 5b 4c 3f 76 74 32 3f
       -0.24593624 -0.15511675 0.7982732 0.69708955
0002f0 fb e6 1f 3f 37 c7 f3 3e de 44 0e 3e ac 9f 32 3f
       0.62461823 0.47612926 0.13893458 0.6977489
000300 26 b6 73 3f 67 17 20 3f 91 1e 3e 3f d5 02 c9 3c
       0.9519981 0.6253571 0.7426539 0.024537483
000310 58 1b 12 3f 7f 62 8a 3f f4 ae 20 3f 9b 03 68 3f
       0.57072973 1.0811309 0.6276696 0.906305
000320 99 1d 8b 3f 6d 76 de 3d 41 d3 83 3d d0 94 5d bb
       1.0868407 0.10862432 0.06436778 -0.0033810623
000330 e7 1b c7 be 1b 2c 0a 3f 3c 09 2a 3f 96 ad 17 3f
       -0.38888475 0.5397355 0.6642034 0.59249246
000340 db b7 12 3f 8b f5 75 3a 95 71 af be 63 18 34 3f
       0.5731179 0.0009382597 -0.34266344 0.7034971
000350 8d a1 b4 3e a5 17 56 3f 1c 14 4a 3f 39 9a ef bd
       0.35279503 0.8362983 0.78936934 -0.116993375
000360 46 16 aa bd 3f f8 46 bd ab 2b 41 3f 5c a7 14 3f
       -0.083050296 -0.04857659 0.7545726 0.5806787
000370 74 25 16 3f a4 47 f7 3e 94 40 8d 3f b5 bf 29 3f
       0.586509 0.48296845 1.1035333 0.66308147
000380 66 ee d7 3e 0a da 92 3f d8 f1 7f 3f 60 6b b8 3e
       0.4217407 1.147279 0.999784 0.3601942
000390 d1 00 69 3f 19 77 b2 bd c5 90 86 3d fa 5b fb 3e
       0.9101687 -0.08714122 0.06570581 0.4909361
0003a0 9f ef e7 3e 68 2a 28 3f b6 de de bc d7 65 91 bd
       0.45300004 0.65689707 -0.027205806 -0.070995025
0003b0 86 38 f6 bd e2 d5 32 bd 08 31 80 3e b8 db 02 3f
       -0.120225 -0.043661006 0.25037408 0.51116514
0003c0 8b 3a 12 3d 87 10 79 3d ac de db 3c 8e 7f e3 bd
       0.035700362 0.060806777 0.026839577 -0.111083135
0003d0 a8 c3 2f bd 6f 83 94 bd 89 44 8d 3d 9f ac 5b 3e
       -0.0429112 -0.072516315 0.06897838 0.21452568
0003e0 8a 51 4a 3e cc 2a c1 3d fa bb 50 bd 4b 44 50 be
       0.19757667 0.09431991 -0.05096052 -0.20338552
0003f0 32 b5 0e 3d bd 72 b8 bd d7 48 1c be a7 99 39 3e
       0.03484077 -0.090062596 -0.15262161 0.1812502

net.2.bias f4 [30]
000000 02 03 5b bd 67 61 a1 3f d6 4b 42 be 8a 99 4a be
       -0.053469665 1.260785 -0.18974242 -0.19785133
000010 91 9c 8e 3f d5 21 bf bd ae 4b 8b 3e 65 ba b0 3f
       1.114153 -0.09332625 0.27206177 1.3806883
000020 f6 b9 0a be a1 f2 b1 3f 3b 29 1b be e3 a1 1d be
       -0.13547501 1.390217 -0.15152447 -0.15393786
000030 93 07 1a be 5a 0e 84 3f 8e 27 93 3f 48 0b ac 3f
       -0.15041952 1.031688 1.1496446 1.3440943
000040 0b c1 a6 3f 9a ff 66 3f c6 48 9c 3f 0e d1 ae 3f
       1.3027662 0.9023377 1.2209709 1.3657548
000050 a3 e7 7d bd 41 a9 a6 3f 82 7b 9e 3f 9d 2d 39 3e
       -0.061988484 1.3020402 1.2381442 0.18083806
000060 26 43 a5 3d 05 d2 aa 3f c0 c7 a7 3f ac bb 10 be
       0.08069448 1.3345343 1.3107834 -0.14134091
000070 c0 4c 6a 3f 3c df 4e be
       0.9152336 -0.20202345

net.4.weight f4 [2, 30]
000000 d6 a9 d7 bd 84 e2 4b 3f 37 c5 65 bc 2a 4a bc bc
       -0.105304405 0.7964251 -0.01402407 -0.022984583
000010 c3 08 e3 3e 8c 3b ae bd ff da 03 be 4d 90 49 3f
       0.44342622 -0.085074514 -0.12876509 0.7873581
000020 10 72 e8 3d 1c 0c 56 3f b1 f4 5f bd 9b ba 8a bd
       0.11349881 0.8361223 -0.054676715 -0.067738734
000030 92 e1 7c be 51 ea fb 3e df 75 5a 3f 3a dd 42 3f
       -0.24695423 0.49202207 0.85336107 0.76118815
000040 29 f6 71 3f f6 38 bd 3e 7f 7c 33 3f bf 2f 62 3f
       0.94516236 0.3695752 0.7011184 0.88354105
000050 d6 2f 5a be f5 34 53 3f 2e 37 5a 3f b8 fc 19 be
       -0.2130731 0.8250268 0.8524045 -0.15037811
000060 18 28 15 3e 16 f5 66 3f 96 93 25 3f a2 74 a3 3c
       0.14566076 0.9021772 0.64678323 0.019953076
000070 99 7b 1b 3f a4 e3 9f bd b4 b4 14 bd 38 7c 50 3f
       0.6073547 -0.07807091 -0.036305144 0.8143954
000080 1f 98 89 be 30 ab 7e be bc cd 6a 3f 9c c3 db bc
       -0.26873872 -0.2486999 0.91720176 -0.026826672
000090 28 20 0f 3f fe f2 40 3f ef 17 49 be 5e 35 5f 3f
       0.5590844 0.75370777 -0.19638036 0.87190807
0000a0 87 4a 3c 3d 6e 62 71 3d be 55 f4 3b 92 81 59 3f
       0.045969512 0.05893176 0.0074565103 0.84963334
0000b0 54 4e a5 3e fd 04 52 3f 14 28 00 3f aa 17 52 3f
       0.32286322 0.8203886 0.50061154 0.8206736
0000c0 16 c7 61 3f 17 de 42 3f 67 f8 b9 bd 29 d9 2c 3f
       0.88194406 0.7612013 -0.09080582 0.6751886
0000d0 42 af 4d 3f ee 97 c7 3e 20 d2 aa bd 51 62 14 3f
       0.8034555 0.389831 -0.083408594 0.5796252
0000e0 32 d6 42 3f 43 65 90 39 16 b6 58 3e f3 a3 3d be
       0.76108086 0.00027541266 0.2116321 -0.18519573

net.4.bias f4 [2]
000000 03 a8 83 3f 6e 84 81 3f
       1.0285648 1.0118539
