runs/20250609_034323/models/best_model_at_train_round_4_epoch_89.pt (torch, 36081 bytes, 6 tensors)

net.0.weight f4 [120, 36]
0.07688126 -0.16008143 -0.08219777 0.034302395 -0.09776008 0.0024030467 -0.01716898 -0.1415615
-0.29898274 -0.18183433 -0.19970907 0.07794868 -0.041213978 -0.11194426 -0.13769345 0.10717451
-0.10732764 -0.0075030383 -0.07702094 -0.145293 -0.1873152 -0.29447934 -0.031003682 0.08800389
0.1764966 -0.22380166 -0.13311282 -0.21501485 -0.14021556 -0.088285394 0.06944436 0.02366416
-0.42546254 -0.20659047 -0.24813749 -0.32711986 -0.8432071 -0.48904923 -0.20793898 -0.21426386
-0.21538533 -0.105407886 -0.060340572 -0.18634547 0.18910769 0.28070915 -0.4023691 -0.39275151
-0.1563838 0.11575295 -0.1826074 -0.34851938 -0.15020423 -0.85950315 -0.12655675 0.06861394
-0.068735845 0.23940778 0.3051672 -0.22112536 -0.41731024 -0.3296461 -0.2694406 -0.2716065
-0.3902908 -0.7700971 -0.019297007 0.35136014 -0.07701665 0.15351415 0.20323503 0.0026954506
-0.19522305 -0.22361027 -0.099695936 0.033432834 0.105689116 -0.042124983 -0.069221616 -0.32492638
-0.26017794 -0.081925355 -0.23792511 -0.53685564 0.09997772 0.19036064 0.078357294 -0.1899942
-0.18475671 -0.2692406 -0.17769866 -0.06958922 -0.010914906 0.18778056 -0.1084959 -0.13673878
0.046437677 -0.2249611 -0.29359117 -0.039759208 -0.2431818 -0.40317443 -0.17241754 0.023778876
-0.0055471575 0.027988054 -0.15502694 -0.08612068 -0.2544899 -0.19152315 -0.1385654 0.24891154
0.33789134 -0.050961737 0.31785536 0.38241488 0.12903415 0.21990187 0.2812452 -0.09956105
-0.53588325 -0.17450975 -0.14165533 0.080161616 0.109825425 0.082568064 0.24780418 0.1233373
0.20879745 0.21092944 0.3555769 0.113629065 -0.427352 -0.18136874 -0.0018751497 -0.060284156
-0.054604538 0.38401923 0.24807839 0.07164472 0.112242945 -0.1907111 0.2563192 0.09674179
0.027497271 0.090196595 0.024580434 -0.2090705 -0.13276297 0.15587537 -0.06323834 0.22743821
0.079147816 0.19063386 0.33930263 0.2119233 0.024105802 0.31519398 0.30637062 0.240499
0.03079558 0.21531792 0.047468822 0.26705167 -0.09021674 0.27277243 0.10507809 0.39450818
0.10446997 0.06064251 -0.02030594 0.09955818 0.20118982 -0.109131336 0.04543276 0.09638579
-0.08727108 0.022461122 0.22622418 0.33814824 0.015525418 0.5686647 -0.4104325 -0.146367
0.254772 -0.10092411 -0.019464977 0.04393266 -0.2635563 -0.08785625 -0.14792101 -0.13487333
0.7226862 0.0780728 -0.22858164 -0.3057359 0.10124774 0.0130552715 -0.05476412 -0.052859586
-0.3141117 -0.25568163 -0.32335034 -0.15553099 0.47801685 0.482369 -0.45863697 -0.014807772
-0.18033512 -0.20019288 -0.3705086 -0.08674481 -0.31822953 -0.23724294 -0.3126013 -0.08686568
-0.18142402 0.04949884 0.12623464 -0.30334687 -0.16031523 -0.14637491 -0.27201256 -0.3409292
-0.11598854 0.13650371 -0.0971762 -0.9067948 -0.14800385 0.81942457 -0.46050856 -0.5185258
-0.02178541 -0.054231506 -0.38770473 -0.47962126 -0.3673438 -0.5130834 -0.19899482 0.16392301
-0.22701043 0.3404799 0.046351228 -0.51669383 -0.17720415 -1.058689 -0.31062716 -0.49541104
-0.33802676 -0.014851521 -0.5970813 -0.20673724 0.037672497 0.048071854 0.20186232 0.31337154
00000000: ec73 9d3d 63ec 23be 4e57 a8bd ab80 0c3d
00000010: 7036 c8bd 6f7c 1d3b f6a5 8cbc 7ff5 10be
00000020: 4414 99be c732 3abe 8980 4cbe 8fa3 9f3d
00000030: fdcf 28bd 0843 e5bd 83ff 0cbe 4f7e db3d
00000040: 98ce dbbd 0cdc f5bb 28bd 9dbd b0c7 14be
00000050: 8ecf 3fbe ffc5 96be 6ffb fdbc 623b b43d
00000060: 86bb 343e 432c 65be ba4e 08be da2c 5cbe
00000070: ab94 0fbe f9ce b4bd d838 8e3d 57db c13c
00000080: 3ad6 d9be 748c 53be c117 7ebe 417c a7be
00000090: 6cdc 57bf a964 fabe f5ed 54be fc67 5bbe
000000a0: f98d 5cbe 17e0 d7bd ad27 77bd 59d1 3ebe
000000b0: 72a5 413e 1cb9 8f3e 5303 cebe ba16 c9be
000000c0: 1323 20be e20f ed3d 6ffd 3abe 2271 b2be
000000d0: 23cf 19be 6608 5cbf 1898 01be 7785 8c3d
000000e0: 61c5 8cbd 5027 753e e03e 9c3e b06e 62be
000000f0: b0a9 d5be 60c7 a8be 1ef4 89be 0210 8bbe
00000100: 32d4 c7be 1525 45bf c214 9ebc 7ae5 b33e
00000110: e8ba 9dbd d032 1d3e d81c 503e 28a6 303b
00000120: 8de8 47be 17fa 64be 622d ccbd def0 083d
00000130: 8973 d83d 3f8b 2cbd 10c4 8dbd c05c a6be
00000140: 0b36 85be 7bc8 a7bd a4a2 73be 5f6f 09bf
00000150: 1ec1 cc3d e6ed 423e ca79 a03d d78d 42be
00000160: dd30 3dbe e7d9 89be a3f6 35be cb84 8ebd
00000170: 6fd4 32bc 8c49 403e 1933 debd 4005 0cbe
00000180: 6f35 3e3d 345c 66be 9551 96be 8dda 22bd
00000190: a604 79be e16c cebe 398e 30be ebcb c23c
000001a0: eec4 b5bb 3447 e53c 62bf 1ebe 0a60 b0bd
000001b0: 804c 82be a51e 44be 17e4 0dbe abe2 7e3e
000001c0: 1800 ad3e 41bd 50bd f0bd a23e e2cb c33e
000001d0: 8721 043e f52d 613e 5fff 8f3e aae6 cbbd
000001e0: a52f 09bf afb2 32be 180e 11be c62b a43d
000001f0: 27ec e03d 7219 a93d 61c0 7d3e 4498 fc3d
00000200: 00cf 553e e3fd 573e 2d0e b63e 5bb6 e83d
00000210: e2cd dabe bab8 39be 95c7 f5ba 85ec 76bd
00000220: 02a9 5fbd 2b9e c43e 4308 7e3e 78ba 923d
00000230: a1df e53d c549 43be 453c 833e 8f20 c63d
00000240: f541 e13c feb8 b83d e85c c93c 9416 56be
00000250: 04f3 07be cb9d 1f3e 1a83 81bd 90e5 683e
00000260: 4018 a23d 8635 433e 13b9 ad3e 6c02 593e
00000270: 8879 c53c 1b61 a13e 9cdc 9c3e 5f45 763e
00000280: 0347 fc3c 4d7c 5c3e ab6e 423d ffba 883e
00000290: 8ec3 b8bd d4a8 8b3e 2f33 d73d fafc c93e
000002a0: 5af4 d53d 4864 783d a558 a6bc 29e5 cb3d
000002b0: b404 4e3e 4080 dfbd b417 3a3d ea65 c53d
000002c0: 2ebb b2bd 6300 b83c 50a7 673e c421 ad3e
000002d0: 535e 7e3c 0394 113f 3524 d2be 3be1 15be
000002e0: 7a71 823e 4db1 cebd 0475 9fbc bcf2 333d
000002f0: daf0 86be faed b3bd 9b78 17be 3c1c 0abe
00000300: f601 393f a2e4 9f3d 4e11 6abe 6a89 9cbe
00000310: fa5a cf3d c7e5 553c 5850 60bd 4b83 58bd
00000320: 40d3 a0be b4e8 82be 2d8e a5be 8443 1fbe
00000330: a0be f43e 12f9 f63e 77d2 eabe 4c9c 72bc
00000340: c5a9 38be 5dff 4cbe 4eb3 bdbe 43a7 b1bd
00000350: fbee a2be d0ef 72be 470d a0be a2e6 b1bd
00000360: 38c7 39be 4cbf 4a3d a743 013e 4850 9bbe
00000370: ad29 24be 4ee3 15be 3b45 8bbe 468e aebe
00000380: 668b edbd a1c7 0b3e 5104 c7bd b423 68bf
00000390: 528e 17be cfc5 513f c7c7 ebbe 1bbe 04bf
000003a0: 5177 b2bc db21 5ebd 3c81 c6be eb90 f5be
000003b0: 7d14 bcbe 6f59 03bf 4cc5 4bbe 6fdb 273e
000003c0: 6c75 68be 6253 ae3e c9da 3d3d 0c46 04bf
000003d0: 0175 35be 1f83 87bf 860a 9fbe 84a6 fdbe
000003e0: d811 adbe cb53 73bc 52da 18bf edb2 53be
000003f0: 7a4e 1a3d fee6 443d ffb4 4e3e 3c72 a03e

net.0.bias f4 [120]
-0.32211405 0.85565263 -0.43336275 1.5021834 1.5420184 -0.1750386 1.0758526 0.14000061
-0.4510235 0.6859258 1.3499322 1.3545238 0.3860986 1.427939 1.2035686 -0.3982195
1.5163732 1.0334146 1.354083 -0.31036958 -0.3922428 0.93292713 1.4951675 1.39759
-0.64092237 1.1995435 -0.32770866 -0.45911774 0.4695776 0.47763076 1.1083513 -0.2721567
1.3311265 1.6348647 1.5274154 0.6464646 1.340719 1.4212748 -0.21027903 -0.4645507
-0.17070808 -0.45647508 -0.17376119 1.3551643 0.8731528 -0.39693773 1.4061277 1.1082329
-0.22118646 1.1088222 1.3020117 1.4400895 1.2704403 -0.42284778 0.8335683 0.6103267
-0.37373888 1.348598 -0.42059308 -0.29299024 1.5152606 0.73853296 1.4670699 -0.26167592
-0.4351571 -0.3402258 1.2706448 1.0182369 0.83747804 1.1144282 0.9257963 1.3603001
1.0085108 1.3571274 1.510995 -0.38542405 1.1141903 1.5150917 1.4315014 1.4705832
1.6646328 -0.2968898 -0.3510616 -0.469624 -0.08692947 1.4657121 1.2422445 1.381825
1.2315526 -0.26455846 -0.36637783 1.441937 1.0743005 1.4115406 1.0261719 -0.24308778
-0.24657166 -0.11440211 1.5549444 1.3884025 1.3363063 1.4097337 1.596507 1.226122
0.68434715 1.5574228 1.3102585 0.54957926 1.335194 -0.38138622 -0.3395514 1.315163
1.484631 1.5658526 -0.41047913 -0.621098 -0.35863927 -0.38593397 1.111003 1.4429708
00000000: 22ec a4be 0d0c 5b3f b9e1 ddbe 8c47 c03f
00000010: dc60 c53f 523d 33be 8ab5 893f 525c 0f3e
00000020: 8dec e6be d598 2f3f 94ca ac3f 0961 ad3f
00000030: b7ae c53e b5c6 b63f 890e 9a3f 6de3 cbbe
00000040: 8418 c23f ee46 843f 9752 ad3f c3e8 9ebe
00000050: 0cd4 c8be 50d4 6e3f a661 bf3f 3be4 b23f
00000060: 7d13 24bf a48a 993f 6ec9 a7be 7b11 ebbe
00000070: 7a6c f03e 058c f43e 75de 8d3f 1f58 8bbe
00000080: 5a62 aa3f 3f43 d13f 5982 c33f b47e 253f
00000090: ae9c ab3f 55ec b53f 6353 57be 97d9 edbe
000000a0: 19ce 2ebe 1ab7 e9be 74ee 31be 0676 ad3f
000000b0: f186 5f3f 6c3b cbbe fefb b33f 93da 8d3f
000000c0: b47e 62be e3ed 8d3f 52a8 a63f da54 b83f
000000d0: ca9d a23f 817f d8be bb64 553f 5f3e 1c3f
000000e0: b45a bfbe dc9e ac3f fa57 d7be d102 96be
000000f0: 0ff4 c13f 7f10 3d3f f2c8 bb3f 63fa 85be
00000100: e9cc debe 1332 aebe 7da4 a23f 9655 823f
00000110: f664 563f 95a5 8e3f fc00 6d3f 501e ae3f
00000120: e216 813f 5ab6 ad3f 4968 c13f 4d56 c5be
00000130: ca9d 8e3f 86ee c13f 703b b73f 123c bc3f
00000140: b012 d53f f101 98be 59be b3be 8f72 f0be
00000150: 1408 b2bd 749c bb3f de01 9f3f a4df b03f
00000160: 84a3 9d3f 3574 87be e095 bbbe 6491 b83f
00000170: ae82 893f 5dad b43f 9a59 833f 01ec 78be
00000180: 487d 7cbe a74b eabd 6b08 c73f 2cb7 b13f
00000190: 160c ab3f 2772 b43f 575a cc3f 91f1 9c3f
000001a0: 6031 2f3f a159 c73f 8db6 a73f 3ab1 0c3f
000001b0: a3e7 aa3f 0e45 c3be aed9 adbe 4357 a83f
000001c0: 6308 be3f dc6d c83f 522a d2be 4700 1fbf
000001d0: 919f b7be 2399 c5be 5935 8e3f 44b3 b83f

net.2.weight f4 [30, 120]
0.09671832 0.12160131 0.032736756 -0.24098851 0.07151834 0.049042843 -0.040495586 0.07768309
0.041965555 0.090293966 -0.13375555 -0.121145435 0.081851564 -0.11342575 -0.16849847 0.08580423
-0.055695023 -0.08271833 -0.19348109 -0.129107 0.05150067 -0.15861632 -0.24995184 -0.098056614
0.15750927 0.0021972726 0.06724132 0.08721049 -0.029151887 -0.02542548 -0.077182926 -0.05783266
0.17434716 -0.046748396 -0.19861747 0.053593673 -0.21496768 -0.107662715 -0.15880089 -0.0011377461
0.23707911 -0.17362505 -0.23907465 -0.08526265 -0.04555869 0.09107466 -0.061080776 0.06793615
0.13572991 -0.1694724 -0.09218107 -0.109977536 -0.13849038 0.03336519 -0.022642389 0.089871265
-0.0014923621 0.022072673 0.09455294 -0.34726837 -0.0346963 0.08261228 0.00927305 0.010540998
0.10650147 0.02349386 -0.15386075 -0.033574548 -0.030278672 -0.0910705 -0.07004951 -0.1699321
-0.09784877 -0.23757213 -0.2441297 0.17704622 0.0154709555 -0.2413716 -0.05689141 -0.38418186
0.056539655 -0.1629218 -0.07707388 -0.056584436 0.04810201 -0.14618863 0.063738056 -0.049110025
-0.09087219 0.036659285 0.010918151 -0.033438217 0.019131914 -0.17261796 0.05138104 -0.008525576
0.044035673 0.10500029 -0.26844925 -0.11767404 -0.20853418 -0.03209946 -0.03762384 0.0028720973
-0.15221494 -0.20496218 -0.198789 0.10889464 -0.12386307 -0.100280076 0.10580261 0.044980034
-0.027406104 0.090521075 0.14801049 -0.019092672 0.13510358 -0.1997199 -0.38466212 -0.117519796
-0.035362396 0.06778731 -0.32088083 0.7146908 0.7570404 0.30958572 1.0493164 0.20601878
-0.12805617 0.48856634 0.7960812 0.6781024 0.28802326 0.6819908 0.25693008 -0.13198733
0.70503706 0.5047098 0.77528965 0.06896456 -0.06279705 0.47861817 0.5605519 0.62765646
-0.23841332 0.7070575 -0.46909192 -0.08307366 0.17590964 0.113034286 0.3720483 0.012070275
0.69207305 0.89268965 0.5556936 0.52235365 0.5951078 0.47494456 0.16302626 -0.22402169
0.033382736 0.12384441 -0.49516657 0.7034858 -0.021718534 -0.29741794 0.6088735 0.8649086
-0.09825667 0.3077267 0.6657083 1.0692849 0.61082906 -0.2381379 0.3004551 0.4654315
-0.08897825 0.5676051 0.034019873 0.060241234 0.7473401 0.52424395 0.8151452 -0.01529024
-0.24593624 -0.15511675 0.80373037 0.7063127 0.6934109 0.4893951 0.12524264 0.6790056
0.92779404 0.6466703 0.7322044 0.024537483 0.5654732 1.0711063 0.6145976 0.88862234
1.1232679 0.10747673 0.06436778 0.12328082 -0.36029866 0.5303497 0.6489199 0.5978275
0.5876637 0.014874006 -0.34266344 0.68666345 0.34986624 0.81292117 0.8587281 -0.13509087
-0.088878006 0.034274552 0.74997836 0.56522006 0.5714477 0.46737143 1.113892 0.695245
0.42088488 1.1584711 1.0156044 0.26056668 0.9116046 -0.08714122 0.10810837 0.47476894
0.4431684 0.64480346 -0.027205806 -0.07100482 -0.11779156 -0.043661006 0.22965394 0.5084649
0.035700362 0.060806777 0.026839577 -0.111083135 -0.0429112 -0.072516315 0.06897838 0.21452568
0.19757667 0.09431991 -0.05096052 -0.20338552 0.03484077 -0.090062596 -0.15262161 0.1812502
00000000: 4114 c63d 1c0a f93d fa16 063d b1c5 76be
00000010: 3578 923d 26e1 483d b3de 25bd 5018 9f3d
00000020: 13e4 2b3d 0bec b83d 37f7 08be 191b f8bd
00000030: cba1 a73d c24b e8bd dd8a 2cbe 21ba af3d
00000040: 7720 64bd 3a68 a9bd e81f 46be a034 04be
00000050: 5ef2 523d 516c 22be 60f3 7fbe e8d1 c8bd
00000060: 1c4a 213e 1e00 103b d1b5 893d 6a9b b23d
00000070: f0cf eebc 1949 d0bc 1512 9ebd f0e1 6cbd
00000080: 1088 323e 3f7b 3fbd 6162 4bbe 0a85 5b3d
00000090: 7d20 5cbe 457e dcbd b39c 22be 6d20 95ba
000000a0: dec4 723e c4ca 31be fccf 74be 2f9e aebd
000000b0: c09b 3abd 5a85 ba3d d62f 7abd 1c22 8b3d
000000c0: c8fc 0a3e 2c8a 2dbe 6ec9 bcbd e73b e1bd
000000d0: 6cd0 0dbe f0a9 083d 887c b9bc 6d0e b83d
000000e0: 5d9b c3ba c0d1 b43c f9a4 c13d 29cd b1be
000000f0: b51d 0ebd a130 a93d feed 173c 26b4 2c3c
00000100: 711d da3d 3276 c03c ac8d 1dbe 7785 09bd
00000110: fa0a f8bc 2c83 babd 1e76 8fbd ae02 2ebe
00000120: f064 c8bd 1c46 73be 23fd 79be 9b4b 353e
00000130: e479 7d3c 1e2a 77be f806 69bd 7cb3 c4be
00000140: 2096 673d f9d4 26be e9d8 9dbd 15c5 67bd
00000150: 9d06 453d 79b2 15be 1989 823d 9827 49bd
00000160: 331b babd 0c28 163d 0be2 323c 83f6 08bd
00000170: 88ba 9c3c c3c2 30be ed74 523d dcae 0bbc
00000180: c05e 343d 640a d73d 2e72 89be 16ff f0bd
00000190: fc89 55be b97a 03bd 751b 1abd cc39 3c3b
000001a0: 3cde 1bbe 9be1 51be 588f 4bbe 2704 df3d
000001b0: ecab fdbd a45f cdbd 0aaf d83d fc3c 383d
000001c0: c482 e0bc 1d63 b93d 1090 173e 3c68 9cbc
000001d0: 9858 0a3e 6083 4cbe 6ff2 c4be 38ae f0bd
000001e0: 29d8 10bd 13d4 8a3d 7e4a a4be faf5 363f
000001f0: 66cd 413f 0582 9e3e 0050 863f 96f6 523e
00000200: 2821 03be 5e25 fa3e facb 4b3f 1e98 2d3f
00000210: c977 933e f396 2e3f 578c 833e b027 07be
00000220: 4f7d 343f a934 013f 6279 463f 4b3d 8d3d
00000230: bd9b 80bd 710d f53e 5480 0f3f 18ae 203f
00000240: 9f22 74be b801 353f d12c f0be 8622 aabd
00000250: a821 343e 857e e73d 1d7d be3e 67c2 453c
00000260: b32b 313f 4f87 643f f041 0e3f f8b8 053f
00000270: fc58 183f ef2b f33e 5bf0 263e f165 65be
00000280: 56bc 083d 23a2 fd3d 7986 fdbe a517 343f
00000290: 11eb b1bc 2a47 98be 22df 1b3f a66a 5d3f
000002a0: cb3a c9bd 5b8e 9d3e dc6b 2a3f 54de 883f
000002b0: 4b5f 1c3f 6cda 73be 40d5 993e 0a4d ee3e
000002c0: 3b3a b6bd 914e 113f 6c58 0b3d 83bf 763d
000002d0: ae51 3f3f da34 063f 5bad 503f ea83 7abc
000002e0: b6d6 7bbe edd6 1ebe 46c1 4d3f e9d0 343f
000002f0: 6083 313f ff91 fa3e 9b3f 003e 50d3 2d3f
00000300: e983 6d3f 2f8c 253f bf71 3b3f d502 c93c
00000310: dac2 103f 031a 893f 4556 1d3f c17c 633f
00000320: 3ec7 8f3f c31c dc3d 41d3 833d a87a fc3d
00000330: 1179 b8be ffc4 073f 9d1f 263f 390b 193f
00000340: 2171 163f 1ab2 733c 9571 afbe 2dc9 2f3f
00000350: ab21 b33e 9a1b 503f 9bd5 5b3f 4355 0abe
00000360: ac05 b6bd 7963 0c3d 95fe 3f3f 43b2 103f
00000370: 654a 123f 4f4b ef3e 0394 8e3f 94fb 313f
00000380: 397e d73e c848 943f 53ff 813f ff68 853e
00000390: eb5e 693f 1977 b2bd ec67 dd3d ea14 f33e
000003a0: f8e6 e23e d711 253f b6de debc fa6a 91bd
000003b0: b43c f1bd e2d5 32bd 672a 6b3e c12a 023f
000003c0: 8b3a 123d 8710 793d acde db3c 8e7f e3bd
000003d0: a8c3 2fbd 6f83 94bd 8944 8d3d 9fac 5b3e
000003e0: 8a51 4a3e cc2a c13d fabb 50bd 4b44 50be
000003f0: 32b5 0e3d bd72 b8bd d748 1cbe a799 393e

net.2.bias f4 [30]
-0.053469665 1.3589714 -0.18974242 -0.19785133 1.1987145 -0.09332625 0.27901274 1.4783598
-0.13547501 1.4903275 -0.15152447 -0.3111749 -0.15041952 1.1184989 1.2423236 1.4417726
1.4006188 0.9763643 1.3175588 1.4656713 -0.21276702 1.3996125 1.3373122 0.21027608
0.08069448 1.4325639 1.403842 -0.14134091 0.99272335 -0.20202345
00000000: 0203 5bbd c6f2 ad3f d64b 42be 8a99 4abe
00000010: 7a6f 993f d521 bfbd c2da 8e3e e53a bd3f
00000020: f6b9 0abe 0dc3 be3f 3b29 1bbe 5152 9fbe
00000030: 9307 1abe f92a 8f3f 7604 9f3f 018c b83f
00000040: 7a47 b33f 03f3 793f c4a5 a83f 1e9b bb3f
00000050: 99df 59be 8126 b33f 0c2d ab3f 9d52 573e
00000060: 2643 a53d 415e b73f 18b1 b33f acbb 10be
00000070: 1e23 7e3f 3cdf 4ebe

net.4.weight f4 [2, 30]
-0.105304405 0.78603745 -0.01402407 -0.022984583 0.427468 -0.085074514 -0.23245856 0.7812751
0.11349881 0.8299289 -0.054676715 -0.067738734 -0.24695423 0.47761074 0.84004146 0.75434273
0.9364484 0.34334376 0.6922365 0.8772937 -0.2130731 0.8180371 0.8390803 -0.24479362
0.14566076 0.89390886 0.63613045 0.019953076 0.5830863 -0.07807091 -0.036305144 0.8132585
-0.26873872 -0.2486999 0.91990185 -0.026826672 0.54820734 0.7554649 -0.19638036 0.8744205
0.045969512 -0.06062322 0.0074565103 0.85246086 0.29551187 0.82298845 0.48784274 0.8202936
0.8867974 0.7616714 0.1464917 0.67252076 0.799989 0.39983562 -0.083408594 0.5694521
0.76282364 0.00027541266 0.16263485 -0.18519573
00000000: d6a9 d7bd c039 493f 37c5 65bc 2a4a bcbc
00000010: 16dd da3e 8c3b aebd 9e09 6ebe a501 483f
00000020: 1072 e83d 3876 543f b1f4 5fbd 9bba 8abd
00000030: 92e1 7cbe 6589 f43e f50c 573f 9b1c 413f
00000040: 15bb 6f3f c1ca af3e 6936 313f 5296 603f
00000050: d62f 5abe e16a 513f f7cd 563f 2eab 7abe
00000060: 1828 153e 36d7 643f 72d9 223f a274 a33c
00000070: 2545 153f a4e3 9fbd b4b4 14bd b631 503f
00000080: 1f98 89be 30ab 7ebe b07e 6b3f 9cc3 dbbc
00000090: 5157 0c3f 2666 413f ef17 49be 06da 5f3f
000000a0: 874a 3c3d 0e50 78bd be55 f43b e03a 5a3f
000000b0: 554d 973e 5faf 523f 86c6 f93e c3fe 513f
000000c0: 2805 633f e6fc 423f ec01 163e 522a 2c3f
000000d0: 14cc 4c3f 41b7 cc3e 20d2 aabd 9dc7 113f
000000e0: 6948 433f 4365 9039 c089 263e f3a3 3dbe

net.4.bias f4 [2]
1.144034 1.1267642
00000000: b56f 923f cf39 903f
