runs/20250609_034323/models/best_model_at_train_round_2_epoch_2.pt (torch, 36069 bytes, 6 tensors)

net.0.weight f4 [120, 36]
0.07688238 -0.16008136 -0.08219777 0.034302395 -0.09776008 0.0024030467 -0.01716898 -0.1415615
-0.29898274 -0.18183416 -0.19970858 0.07794916 -0.041213978 -0.11194426 -0.13769345 0.10717451
-0.10732764 -0.0075030383 -0.07702094 -0.145293 -0.18731503 -0.29447892 -0.031003842 0.08800435
0.17649771 -0.22380158 -0.13311282 -0.21501485 -0.14021556 -0.088285394 0.06944436 0.023664178
-0.42546242 -0.20658997 -0.24813704 -0.3271197 -0.46852276 -0.2649327 -0.2531586 -0.14973827
-0.1693629 -0.06697863 0.044614285 -0.16163307 0.22073992 0.28298435 -0.3280274 -0.56227136
-0.030722464 0.18137565 -0.17742932 -0.20775387 -0.08291361 -0.44456956 -0.083328396 0.02444311
-0.13636078 0.31989053 0.20217977 -0.48989064 -0.14555807 -0.16821928 -0.30444863 -0.23135664
-0.36434522 -0.47277346 0.053354815 0.32695287 -0.08179621 0.10985705 -0.13671362 -0.295856
-0.19522257 -0.22361027 -0.099695936 0.033432834 0.105689116 -0.042124983 -0.06922154 -0.32492614
-0.2601777 -0.0819251 -0.23792487 -0.53685564 0.09997772 0.19036064 0.078357294 -0.1899942
-0.18475671 -0.2692406 -0.17769839 -0.06958897 -0.010914579 0.18778059 -0.10849565 -0.13673878
0.04643817 -0.2249611 -0.29359117 -0.039759208 -0.2431818 -0.40317443 -0.17241727 0.023779245
-0.0055468227 0.02798841 -0.15502681 -0.08612052 -0.12997405 -0.036788963 -0.06157244 0.25627333
0.37643954 -0.028924465 0.31355786 0.3178291 0.12734129 0.28453994 0.32742417 -0.09756834
-0.38772818 -0.20733798 0.0487023 0.18297963 0.16077565 0.1547841 0.27826345 0.084640644
0.20874965 0.20820144 0.30188614 0.066803746 -0.32597214 -0.015721329 0.062203877 -0.061803404
-0.1537881 0.37904248 0.2030587 0.01091065 0.2180613 -0.18488689 0.11490549 0.12747099
0.15265483 0.17935339 0.04847823 -0.22477144 -0.10269761 0.1750261 -0.07142723 0.16070771
0.07513484 0.2596738 0.3984431 0.22411431 0.10570876 0.27693558 0.4545772 0.34049028
0.072131835 0.29061356 0.07016608 0.22809243 -0.085076556 0.2796746 0.061064303 0.3541333
0.1620208 0.17231396 0.01775542 0.083045624 0.09461179 -0.120648816 -0.0006361162 0.032295536
0.023756765 0.043468945 0.0973955 0.3719797 -0.03464795 0.3844663 -0.40458593 -0.17747863
0.16711392 -0.08239931 -0.019464977 0.04393266 -0.2635563 -0.042619012 -0.11393703 -0.15258779
0.52271163 -0.016173363 -0.26223588 -0.06237991 0.010877871 0.031634375 -0.05476412 -0.052859586
-0.14598286 -0.09238055 -0.29562646 -0.07370077 0.3143707 0.29121858 -0.3061304 -0.10263386
-0.1610906 -0.20019288 -0.3705086 -0.08674481 -0.15050738 -0.06359168 -0.31568414 -0.0359931
-0.07543124 0.1272468 0.14292438 -0.2708081 -0.0034509187 0.019413657 -0.04749585 -0.32054678
0.06339519 0.31952074 0.04324469 -0.5633605 -0.16151763 0.6969861 -0.23505166 -0.44179365
0.1589142 0.055354435 -0.29791272 -0.2639167 -0.17116274 -0.25922123 -0.03690103 0.21655448
-0.22004692 0.3948185 0.15581276 -0.4190328 -0.069996454 -0.77046794 -0.15851545 -0.3175302
-0.1374938 0.061570212 -0.46223688 -0.0014950987 0.06372093 -0.122894555 0.08799653 0.23595345
00000000: 8274 9d3d 5eec 23be 4e57 a8bd ab80 0c3d
00000010: 7036 c8bd 6f7c 1d3b f6a5 8cbc 7ff5 10be
00000020: 4414 99be bc32 3abe 6880 4cbe cfa3 9f3d
00000030: fdcf 28bd 0843 e5bd 83ff 0cbe 4f7e db3d
00000040: 98ce dbbd 0cdc f5bb 28bd 9dbd b0c7 14be
00000050: 83cf 3fbe f1c5 96be c5fb fdbc a03b b43d
00000060: d1bb 343e 3e2c 65be ba4e 08be da2c 5cbe
00000070: ab94 0fbe f9ce b4bd d838 8e3d 61db c13c
00000080: 36d6 d9be 528c 53be a317 7ebe 3c7c a7be
00000090: 37e2 efbe 42a5 87be 019e 81be fd54 19be
000000a0: 786d 2dbe 182c 89bd 78bd 363d 2483 25be
000000b0: a509 623e 53e3 903e 35f3 a7be 04f1 0fbf
000000c0: adad fbbc 8aba 393e 08b0 35be 6ebd 54be
000000d0: 9cce a9bd 9f9e e3be 14a8 aabd eb3c c83c
000000e0: 29a2 0bbe b1c8 a33e 3708 4f3e f2d2 fabe
000000f0: 2d0d 15be ad41 2cbe b1e0 9bbe c1e8 6cbe
00000100: 758b babe 5d0f f2be 948a 5a3d 5e66 a73e
00000110: c584 a7bd bcfc e03d a8fe 0bbe 707a 97be
00000120: 6de8 47be 17fa 64be 622d ccbd def0 083d
00000130: 8973 d83d 3f8b 2cbd 06c4 8dbd b85c a6be
00000140: 0336 85be 59c8 a7bd 94a2 73be 5f6f 09bf
00000150: 1ec1 cc3d e6ed 423e ca79 a03d d78d 42be
00000160: dd30 3dbe e7d9 89be 91f6 35be a984 8ebd
00000170: 10d3 32bc 8e49 403e f832 debd 4005 0cbe
00000180: f335 3e3d 345c 66be 9551 96be 8dda 22bd
00000190: a604 79be e16c cebe 278e 30be b1cc c23c
000001a0: 1fc2 b5bb f347 e53c 59bf 1ebe f55f b0bd
000001b0: eb17 05be 06b0 16bd 6233 7cbd 4236 833e
000001c0: afbc c03e 00f3 ecbc a88a a03e 7fba a23e
000001d0: c165 023e 38af 913e 24a4 a73e e9d1 c7bd
000001e0: 4f84 c6be 6850 54be 107c 473d 035f 3b3e
000001f0: 5fa2 243e b97f 1e3e 8c78 8e3e 1358 ad3d
00000200: 78c2 553e c232 553e d290 9a3e 67d0 883d
00000210: d2e5 a6be 04ca 80bc 7ec9 7e3d 9125 7dbd
00000220: a17a 1dbe db11 c23e 9fee 4f3e 95c2 323c
00000230: 764b 5f3e fd52 3dbe 9253 eb3d c187 023e
00000240: 8c51 1c3e 6aa8 373e 1c91 463d 7c2a 66be
00000250: 2053 d2bd 0b3a 333e 7148 92bd 9090 243e
00000260: 4ce0 993d f7f3 843e bc00 cc3e 397e 653e
00000270: d67d d83d 80ca 8d3e 58be e83e be54 ae3e
00000280: dbb9 933d 4dcb 943e 3cb3 8f3d 1091 693e
00000290: 9e3c aebd 8231 8f3e 901e 7a3d f650 b53e
000002a0: c8e8 253e 1273 303e d173 913c d313 aa3d
000002b0: d3c3 c13d ba16 f7bd 09c1 26ba 5348 043d
000002c0: 8c9d c23c 7e0c 323d 4b77 c73d 2074 be3e
000002d0: 02eb 0dbd c4d8 c43e e325 cfbe f5bc 35be
000002e0: e91f 2b3e f8c0 a8bd 0475 9fbc bcf2 333d
000002f0: daf0 86be 4691 2ebd d157 e9bd f93f 1cbe
00000300: 6ed0 053f 007e 84bc c843 86be 1482 7fbd
00000310: 1939 323c 0c93 013d 5850 60bd 4b83 58bd
00000320: 887c 15be 0432 bdbd 5a5c 97be 6ef0 96bd
00000330: 32f5 a03e 9a1a 953e 20bd 9cbe b431 d2bd
00000340: eff4 24be 5dff 4cbe 4eb3 bdbe 43a7 b1bd
00000350: 9b1e 1abe 5b3c 82bd 5aa1 a1be 806d 13bd
00000360: b27b 9abd fc4c 023e c55a 123e 5ca7 8abe
00000370: cf28 62bb 6409 9f3c 028b 42bd b51e a4be
00000380: 56d5 813d 3998 a33e 5821 313d 6538 10bf
00000390: e164 25be ae6d 323f 62b1 70be c732 e2be
000003a0: 67ba 223e 55bb 623d 0488 98be 1720 87be
000003b0: 4945 2fbe a5b8 84be 8925 17bd 75c0 5d3e
000003c0: fb53 61be a725 ca3e 618d 1f3e 788b d6be
000003d0: 4d5a 8fbd 633d 45bf e051 22be 5293 a2be
000003e0: 2dcb 0cbe 0c31 7c3d 50aa ecbe 30f7 c3ba
000003f0: 1e80 823d 24b0 fbbd 8637 b43d c89d 713e

net.0.bias f4 [120]
-0.3221135 0.5310917 -0.43336248 1.348077 1.3845838 -0.2345891 0.9748583 0.13440357
-0.36585832 0.5662936 1.1828364 1.2090755 0.3612917 1.3137524 1.028136 -0.3982195
1.3707949 0.88650656 1.2034997 -0.3103687 -0.3922428 0.7969346 1.3247169 1.2468389
-0.64092237 1.1203862 -0.32770798 -0.4591176 0.35550493 0.36036512 0.98527426 -0.2721567
1.2024263 1.47726 1.3767645 0.5595528 1.1671878 1.2704846 -0.21027903 -0.4645504
0.039701287 -0.23817344 -0.14012966 1.2177589 0.6976857 -0.410121 1.2558948 0.9508734
-0.03636095 0.9739803 1.1907749 1.2567574 1.1754854 -0.4228475 0.7106383 0.4901777
-0.22561835 1.204773 -0.17235124 -0.27820358 1.3628191 0.64881885 1.3134207 -0.26167592
-0.43515688 -0.3402255 1.1025031 0.8610073 0.6617613 0.9722014 0.82169306 1.1896396
0.9324601 1.2070961 1.3537436 -0.38542393 1.0460409 1.3565128 1.2788726 1.3228219
1.4384354 -0.29683286 -0.351061 -0.30157793 -0.048186906 1.3153237 1.1272143 1.2239792
1.0793906 -0.35435963 -0.3663775 1.2871476 0.9557049 1.2585069 0.8025376 -0.18574643
-0.29987186 -0.022020511 1.3942014 1.2316374 1.161093 1.2891995 1.3821256 0.9995322
0.5582703 1.3687161 1.134488 0.410339 1.1905437 -0.38138622 -0.39210987 1.1302115
1.3345548 1.4120345 -0.41047913 -0.5265558 -0.36080727 -0.38593394 0.94379836 1.2657435
00000000: 10ec a4be a0f5 073f b0e1 ddbe ca8d ac3f
00000010: 0b3a b13f 2038 70be 5090 793f 17a1 093e
00000020: c851 bbbe 9ef8 103f 2f67 973f fcc2 9a3f
00000030: 3afb b83e 0a29 a83f f699 833f 6de3 cbbe
00000040: 3576 af3f 18f2 623f 470c 9a3f a5e8 9ebe
00000050: 0cd4 c8be e803 4c3f 5390 a93f 6b98 9f3f
00000060: 7d13 24bf d168 8f3f 57c9 a7be 7611 ebbe
00000070: be04 b63e c781 b83e ef3a 7c3f 1f58 8bbe
00000080: 1be9 993f db16 bd3f d239 b03f da3e 0f3f
00000090: 6966 953f 3d9f a23f 6353 57be 8dd9 edbe
000000a0: d19d 223d bde3 73be 267e 0fbe 86df 9b3f
000000b0: 889b 323f 61fb d1be 29c1 a03f 706c 733f
000000c0: 38ef 14bd c656 793f 506b 983f 6ddd a03f
000000d0: 4e76 963f 787f d8be 64ec 353f 92f8 fa3e
000000e0: 7f08 67be 0036 9a3f d87c 30be b370 8ebe
000000f0: db70 ae3f fe18 263f 2b1e a83f 63fa 85be
00000100: e2cc debe 0932 aebe d21e 8d3f f96a 5c3f
00000110: 3069 293f 31e2 783f 7a5a 523f 1c46 983f
00000120: b5b5 6e3f 2082 9a3f 7847 ad3f 4956 c5be
00000130: abe4 853f 36a2 ad3f 19b2 a33f 3a52 a93f
00000140: a71e b83f 7afa 97be 44be b3be 6c68 9abe
00000150: a25f 45bd 875c a83f 8f48 903f 5aab 9c3f
00000160: 7929 8a3f a06e b5be d595 bbbe 41c1 a43f
00000170: 14a9 743f c116 a13f 1b73 4d3f 5034 3ebe
00000180: ce88 99be 5c64 b4bc 3175 b23f 4ba6 9d3f
00000190: b29e 943f 7d04 a53f 7ee9 b03f 58e1 7f3f
000001a0: cdea 0e3f 1732 af3f e736 913f f417 d23e
000001b0: bc63 983f 0e45 c3be a0c2 c8be c5aa 903f
000001c0: b1d2 aa3f 8cbd b43f 522a d2be 5ccc 06bf
000001d0: bbbb b8be 2299 c5be c59c 713f e203 a23f

net.2.weight f4 [30, 120]
0.09671832 0.12160131 0.032736756 -0.24098851 0.07151834 0.049042843 -0.040495586 0.07768309
0.041965555 0.090293966 -0.13375555 -0.121145435 0.081851564 -0.11342575 -0.16849847 0.08580423
-0.055695023 -0.08271833 -0.19348109 -0.129107 0.05150067 -0.15861632 -0.24995184 -0.098056614
0.15750927 0.0021972726 0.06724132 0.08721049 -0.029151887 -0.02542548 -0.077182926 -0.05783266
0.17434716 -0.046748396 -0.19861747 0.053593673 -0.21496768 -0.107662715 -0.15880089 -0.0011377461
0.23707911 -0.17362505 -0.23907465 -0.08526265 -0.04555869 0.09107466 -0.061080776 0.06793615
0.13572991 -0.1694724 -0.09218107 -0.109977536 -0.13849038 0.03336519 -0.022642389 0.089871265
-0.0014923621 0.022072673 0.09455294 -0.34726837 -0.0346963 0.08261228 0.00927305 0.010540998
0.10650147 0.02349386 -0.15386075 -0.033574548 -0.030278672 -0.0910705 -0.07004951 -0.1699321
-0.09784877 -0.23757213 -0.2441297 0.17704622 0.0154709555 -0.2413716 -0.05689141 -0.38418186
0.056539655 -0.1629218 -0.07707388 -0.056584436 0.04810201 -0.14618863 0.063738056 -0.049110025
-0.09087219 0.036659285 0.010918151 -0.033438217 0.019131914 -0.17261796 0.05138104 -0.008525576
0.044035673 0.10500029 -0.26844925 -0.11767404 -0.20853418 -0.03209946 -0.03762384 0.0028720973
-0.15221494 -0.20496218 -0.198789 0.10889464 -0.12386307 -0.100280076 0.10580261 0.044980034
-0.027406104 0.090521075 0.14801049 -0.019092672 0.13510358 -0.1997199 -0.38466212 -0.117519796
-0.03536199 -0.024060825 -0.3208806 0.67586696 0.7187066 0.23436083 0.86585605 0.31499887
0.046584424 0.4610124 0.73011315 0.64835256 0.33075276 0.63694257 0.21266533 -0.13198733
0.65436184 0.46516 0.76225907 0.06896322 -0.06279705 0.42464846 0.5099045 0.60338193
-0.23841332 0.6892669 -0.4690917 -0.0830736 0.12021911 0.12849389 0.3325064 0.012070275
0.6668259 0.835893 0.5159427 0.5564853 0.55282396 0.4394709 0.16302626 -0.2240216
0.19308604 -0.12605762 -0.49873188 0.6255038 -0.08539971 -0.26789847 0.5695911 0.77919275
-0.17918602 0.23129375 0.64743453 0.96528286 0.5679435 -0.23813763 0.2633239 0.47734863
-0.14936943 0.5586247 -0.050436083 0.08966667 0.7176749 0.517954 0.7284234 -0.01529024
-0.24593608 -0.1551165 0.67720634 0.5109701 0.5006664 0.4219151 0.0891507 0.62805814
0.8186749 0.57395226 0.6910196 0.024537643 0.5472606 1.0192456 0.5765265 0.8430582
1.0048658 0.10629529 0.06436709 0.0057485495 -0.41560116 0.49351436 0.6303779 0.5393222
0.4967139 -0.053124964 -0.34266305 0.6551556 0.32244894 0.78164214 0.7180391 -0.11993946
-0.06579915 -0.011063548 0.69576406 0.5256967 0.5405263 0.45009902 1.0363309 0.54491043
0.31659096 1.0884333 0.94181967 0.21583027 0.853816 -0.08714122 0.06610756 0.43728936
0.39963588 0.6100462 -0.027205806 0.01088024 -0.1202245 -0.043661077 0.20370357 0.45826656
0.035700362 0.060806777 0.026839577 -0.111083135 -0.0429112 -0.072516315 0.06897838 0.21452568
0.19757667 0.09431991 -0.05096052 -0.20338552 0.03484077 -0.090062596 -0.15262161 0.1812502
00000000: 4114 c63d 1c0a f93d fa16 063d b1c5 76be
00000010: 3578 923d 26e1 483d b3de 25bd 5018 9f3d
00000020: 13e4 2b3d 0bec b83d 37f7 08be 191b f8bd
00000030: cba1 a73d c24b e8bd dd8a 2cbe 21ba af3d
00000040: 7720 64bd 3a68 a9bd e81f 46be a034 04be
00000050: 5ef2 523d 516c 22be 60f3 7fbe e8d1 c8bd
00000060: 1c4a 213e 1e00 103b d1b5 893d 6a9b b23d
00000070: f0cf eebc 1949 d0bc 1512 9ebd f0e1 6cbd
00000080: 1088 323e 3f7b 3fbd 6162 4bbe 0a85 5b3d
00000090: 7d20 5cbe 457e dcbd b39c 22be 6d20 95ba
000000a0: dec4 723e c4ca 31be fccf 74be 2f9e aebd
000000b0: c09b 3abd 5a85 ba3d d62f 7abd 1c22 8b3d
000000c0: c8fc 0a3e 2c8a 2dbe 6ec9 bcbd e73b e1bd
000000d0: 6cd0 0dbe f0a9 083d 887c b9bc 6d0e b83d
000000e0: 5d9b c3ba c0d1 b43c f9a4 c13d 29cd b1be
000000f0: b51d 0ebd a130 a93d feed 173c 26b4 2c3c
00000100: 711d da3d 3276 c03c ac8d 1dbe 7785 09bd
00000110: fa0a f8bc 2c83 babd 1e76 8fbd ae02 2ebe
00000120: f064 c8bd 1c46 73be 23fd 79be 9b4b 353e
00000130: e479 7d3c 1e2a 77be f806 69bd 7cb3 c4be
00000140: 2096 673d f9d4 26be e9d8 9dbd 15c5 67bd
00000150: 9d06 453d 79b2 15be 1989 823d 9827 49bd
00000160: 331b babd 0c28 163d 0be2 323c 83f6 08bd
00000170: 88ba 9c3c c3c2 30be ed74 523d dcae 0bbc
00000180: c05e 343d 640a d73d 2e72 89be 16ff f0bd
00000190: fc89 55be b97a 03bd 751b 1abd cc39 3c3b
000001a0: 3cde 1bbe 9be1 51be 588f 4bbe 2704 df3d
000001b0: ecab fdbd a45f cdbd 0aaf d83d fc3c 383d
000001c0: c482 e0bc 1d63 b93d 1090 173e 3c68 9cbc
000001d0: 9858 0a3e 6083 4cbe 6ff2 c4be 38ae f0bd
000001e0: bcd7 10bd 351b c5bc 764a a4be 9e05 2d3f
000001f0: 28fd 373f 49fc 6f3e bea8 5d3f 8847 a13e
00000200: 4fcf 3e3d d109 ec3e b2e8 3a3f 6ffa 253f
00000210: 6d58 a93e ab0e 233f f1c4 593e b027 07be
00000220: 4284 273f 7429 ee3e 6923 433f 973c 8d3d
00000230: bd9b 80bd 866b d93e 1a89 023f 3d77 1a3f
00000240: 9f22 74be cc73 303f ca2c f0be 7e22 aabd
00000250: 7035 f63d e793 033e 473e aa3e 67c2 453c
00000260: 1ab5 2a3f 15fd 553f d214 043f d275 0e3f
00000270: df85 0d3f 5402 e13e 5bf0 263e eb65 65be
00000280: 59b8 453e 4015 01be c959 ffbe 0421 203f
00000290: 0be6 aebd fd29 89be b9d0 113f 2d79 473f
000002a0: 8a7c 37be 45d8 6c3e 45be 253f c71c 773f
000002b0: bf64 113f 5ada 73be 64d2 863e 0a67 f43e
000002c0: 4df4 18be 0702 0f3f 1196 4ebd 29a3 b73d
000002d0: 8bb9 373f a298 043f f579 3a3f ea83 7abc
000002e0: abd6 7bbe dcd6 1ebe 655d 2d3f f0ce 023f
000002f0: ac2b 003f 4205 d83e a494 b63d 6bc8 203f
00000300: ae94 513f 89ee 123f a9e6 303f 2b03 c93c
00000310: 4519 0c3f a476 823f 3e97 133f aad2 573f
00000320: 719f 803f 58b1 d93d e5d2 833d 545e bc3b
00000330: adc9 d4be eaad fc3e 7260 213f 0511 0a3f
00000340: 4951 fe3e 9099 59bd 8871 afbe 47b8 273f
00000350: 0718 a53e b319 483f 69d1 373f d2a2 f5bd
00000360: b4c1 86bd e243 35bc 981d 323f 0f94 063f
00000370: ee5f 0a3f 6173 e63e 7ea6 843f 407f 0b3f
00000380: 3618 a23e c851 8b3f 181b 713f 9c02 5d3e
00000390: af93 5a3f 1977 b2bd 6763 873d 64e4 df3e
000003a0: 139d cc3e fd2b 1c3f b6de debc 0943 323c
000003b0: 4338 f6bd f5d5 32bd ab97 503e eaa1 ea3e
000003c0: 8b3a 123d 8710 793d acde db3c 8e7f e3bd
000003d0: a8c3 2fbd 6f83 94bd 8944 8d3d 9fac 5b3e
000003e0: 8a51 4a3e cc2a c13d fabb 50bd 4b44 50be
000003f0: 32b5 0e3d bd72 b8bd d748 1cbe a799 393e

net.2.bias f4 [30]
-0.053469665 1.1745889 -0.18974242 -0.19785133 1.0197049 -0.09332625 0.17881812 1.2951328
-0.13547501 1.3038493 -0.15152447 -0.15393786 -0.15041952 0.9394385 1.0705905 1.2572819
1.2219629 0.80729663 1.1326191 1.281233 -0.061988484 1.2179012 1.1528401 0.16125707
0.08069448 1.2523556 1.2230777 -0.14134091 0.8363634 -0.20202345
00000000: 0203 5bbd ee58 963f d64b 42be 8a99 4abe
00000010: b185 823f d521 bfbd 191c 373e e9c6 a53f
00000020: f6b9 0abe 89e4 a63f 3b29 1bbe e3a1 1dbe
00000030: 9307 1abe 0b7f 703f 1c09 893f 9dee a03f
00000040: 4869 9c3f feaa 4e3f aaf9 903f 71ff a33f
00000050: a3e7 7dbd 30e4 9b3f 4490 933f 9320 253e
00000060: 2643 a53d 304d a03f cf8d 9c3f acbb 10be
00000070: e91b 563f 3cdf 4ebe

net.4.weight f4 [2, 30]
-0.105304405 0.7457529 -0.01402407 -0.022984583 0.3964854 -0.085074514 0.01924788 0.7360545
0.11349881 0.78514034 -0.054676715 -0.067738734 -0.24695423 0.4437573 0.79598176 0.71021944
0.89031965 0.32533643 0.65178776 0.8313601 -0.2130731 0.7725108 0.80184895 -0.0132215
0.14566076 0.8479805 0.59696877 0.019953076 0.55308115 -0.07807091 -0.036305144 0.75001466
-0.26873872 -0.2486999 0.8506746 -0.026826672 0.4935262 0.69162047 -0.19638036 0.8094107
0.045969512 0.05893176 0.0074565997 0.7845153 0.26869974 0.7566611 0.44128364 0.75251585
0.8176888 0.7003314 -0.09080582 0.61396843 0.7381474 0.41771463 -0.083408594 0.5194111
0.69687253 0.00027541266 0.14630207 -0.18519573
00000000: d6a9 d7bd a9e9 3e3f 37c5 65bc 2a4a bcbc
00000010: 2200 cb3e 8c3b aebd bbad 9d3c 116e 3c3f
00000020: 1072 e83d f5fe 483f b1f4 5fbd 9bba 8abd
00000030: 92e1 7cbe 2834 e33e 76c5 4b3f f1d0 353f
00000040: fdeb 633f 7f92 a63e 90db 263f 04d4 543f
00000050: d62f 5abe 45c3 453f f945 4d3f fe9e 58bc
00000060: 1828 153e 4015 593f f2d2 183f a274 a33c
00000070: ba96 0d3f a4e3 9fbd b4b4 14bd f600 403f
00000080: 1f98 89be 30ab 7ebe d0c5 593f 9cc3 dbbc
00000090: 77af fc3e 0a0e 313f ef17 49be 8a35 4f3f
000000a0: 874a 3c3d 6e62 713d 7e56 f43b ffd5 483f
000000b0: 0393 893e 8bb4 413f eeef e13e e1a4 403f
000000c0: 0e54 513f eb48 333f 67f8 b9bd 092d 1d3f
000000d0: 3af7 3c3f b1de d53e 20d2 aabd 20f8 043f
000000e0: 3d66 323f 4365 9039 36d0 153e f3a3 3dbe

net.4.bias f4 [2]
0.9553417 0.9155914
00000000: 4691 743f 3364 6a3f
