runs/20250609_034323/models/best_model_at_train_round_0_epoch_142.pt (torch, 36093 bytes, 6 tensors)

net.0.weight f4 [120, 36]
-0.049188834 -0.031280614 -0.08219777 0.034302395 -0.09776008 0.0024035133 -0.01716898 -0.1415615
-0.046999563 0.059240013 0.04614399 0.22423626 -0.041200597 -0.11193092 -0.13769345 0.10717494
-0.10732764 -0.0075025726 -0.07702094 -0.09564273 -0.008299226 -0.06514681 -0.12551033 0.225716
0.051143974 -0.09496063 -0.13311282 -0.21501444 -0.14021556 -0.08828496 0.06944436 0.07331449
-0.08057215 0.13875405 -0.042295657 -0.15655449 -0.35445273 -0.08629011 -0.14819051 -0.14917947
-0.014539952 0.18196048 0.39999545 0.039237164 0.24023622 0.27020672 -0.26427707 -0.36593726
0.19184586 0.23321523 -0.17534417 -0.1830393 0.0029271173 -0.12600356 0.08600095 0.116649486
-0.1575023 0.21637638 0.16525675 -0.3166257 0.13599993 -0.050459113 -0.19729277 -0.20585047
-0.16281064 -0.111389086 0.27255574 0.44208914 -0.083490476 0.12313854 0.10452201 -0.19046447
0.009213577 -0.17211483 -0.09721259 0.036080815 0.13302831 0.097082466 0.25883865 0.05816546
-0.012360204 -0.016545508 -0.1317066 -0.41789603 0.12769842 0.23596168 0.0802404 -0.18873875
-0.14343724 -0.023143852 0.12365543 0.1515938 0.11109078 0.083456166 -0.0510453 -0.12148178
0.23774265 -0.22367288 -0.2928071 -0.037330646 -0.19029854 -0.10807996 0.27257708 0.35744834
0.13408424 0.1263965 -0.005796054 0.04367999 -0.054418914 0.06454074 -0.020489072 0.2434643
0.32591197 -0.058811005 0.25933686 0.2175896 -0.043028355 0.13933498 0.32541013 -0.2110743
-0.3945002 -0.34440887 -0.1326752 0.015802981 0.056903146 -0.0016180498 0.07873417 -0.13152574
-0.10406829 0.032668985 0.21139461 -0.09914242 -0.20756318 0.009952301 0.012602181 -0.124761775
-0.08465419 0.36587864 0.09728664 -0.08999441 0.07405382 -0.26157135 0.12762925 0.02549381
0.19923764 0.16173986 0.060863473 -0.2688769 -0.18442404 0.11516615 -0.13646437 0.03698191
-0.072910614 0.14471404 0.42240313 0.15117243 -0.03196589 0.01604319 0.23649083 0.14633939
-0.07733406 0.09467649 -0.1427372 -0.0314415 -0.35795742 0.11250474 0.0060044373 0.23083371
0.17464074 0.10615191 -0.077305414 -0.013125606 0.14320587 -0.16316098 -0.13209532 -0.05849974
-0.10175118 -0.0041036294 0.13545917 0.33124387 -0.049300272 0.083959535 -0.367352 0.056557216
0.38392106 -0.013589728 0.05018073 0.043224644 -0.22639744 0.16780154 0.16455036 0.084199704
0.13667534 -0.10773894 -0.12565368 -0.12821257 0.20525129 0.101865426 0.014029383 -0.053581554
-0.016217409 0.13286665 0.031660076 0.13799582 0.06617145 -0.023265222 -0.21752638 0.0891971
-0.012693916 -0.1654636 -0.3704384 -0.086697906 -0.010749365 0.21176474 0.0047352123 0.19235787
0.03812111 0.062003147 0.07363755 -0.37429804 0.115702026 0.3208656 0.06747344 -0.101350136
-0.09531451 0.040969588 -0.08581867 -0.19841236 -0.22355603 0.3206939 -0.12705345 -0.36952496
0.18118918 0.13633977 -0.17554356 -0.21032515 -0.14974698 -0.31869507 0.14103673 0.2661347
-0.17615981 0.20695311 0.1262561 -0.34567234 0.20342396 -0.3021277 -0.012374221 -0.20417236
-0.17110094 -0.22643991 -0.11198548 0.21277545 0.18073961 -0.23362803 -0.025736772 0.048251186
00000000: 3b7a 49bd 1a20 00bd 4e57 a8bd ab80 0c3d
00000010: 7036 c8bd 4384 1d3b f6a5 8cbc 7ff5 10be
00000020: 9d82 40bd a8a5 723d 7b01 3d3d 319e 653e
00000030: f5c1 28bd 0a3c e5bd 83ff 0cbe 897e db3d
00000040: 98ce dbbd 24d8 f5bb 28bd 9dbd 56e0 c3bd
00000050: 7af9 07bc b16b 85bd c885 00be 1822 673e
00000060: 587c 513d b87a c2bd ba4e 08be bf2c 5cbe
00000070: ab94 0fbe bfce b4bd d838 8e3d e825 963d
00000080: 0303 a5bd 8b15 0e3e 363e 2dbd d24f 20be
00000090: d47a b5be dfb8 b0bd 41bf 17be 81c2 18be
000000a0: fb38 6ebc d953 3a3e 34cc cc3e 26b7 203d
000000b0: 7c00 763e 8958 8a3e 534f 87be 215c bbbe
000000c0: 3e73 443e f9cf 6e3e 6c8d 33be a76e 3bbe
000000d0: e1d4 3f3b 1407 01be 4421 b03d ede5 ee3d
000000e0: 4848 21be c591 5d3e 1139 293e c41c a2be
000000f0: 9143 0b3e 37ae 4ebd 1e07 4abe 77ca 52be
00000100: d5b7 26be f61f e4bd 6d8c 8b3e 8259 e23e
00000110: 0efd aabd 0f30 fc3d a30f d63d 1e09 43be
00000120: 8bf4 163c df3e 30be 6517 c7bd 7ac9 133d
00000130: 9338 083e 2cd3 c63d 8086 843e e83e 6e3d
00000140: 7482 4abc 728a 87bc 18de 06be 78f6 d5be
00000150: 60c3 023e f09f 713e 1455 a43d bb44 41be
00000160: 36e1 12be 2d98 bdbc 0f3f fd3d 683b 1b3e
00000170: 9083 e33d 11eb aa3d e014 51bd 71cb f8bd
00000180: cf72 733e 810a 65be d0ea 95be 05e8 18bd
00000190: 9fdd 42be 0759 ddbd 398f 8b3e 7803 b73e
000001a0: 614d 093e 166e 013e d3ec bdbb cae9 323d
000001b0: 5ee6 5ebd ef2d 843d b3d8 a7bc b54e 793e
000001c0: efdd a63e cfe3 70bd cdc7 843e cfcf 5e3e
000001d0: 803e 30bd d4ad 0e3e 289c a63e dc23 58be
000001e0: eefb c9be 5c56 b0be 02dc 07be 4175 813c
000001f0: 4613 693d be14 d4ba 613f a13d afae 06be
00000200: c121 d5bd eacf 053d d477 583e 2e0b cbbd
00000210: 718b 54be fa0e 233c 6179 4e3c 1a83 ffbd
00000220: 2d5f adbd 7254 bb3e 383e c73d fd4e b8bd
00000230: 87a9 973d aeec 85be 3eb1 023e 65d8 d03c
00000240: f404 4c3e 229f 253e fa4b 793d 3caa 89be
00000250: a8d9 3cbe 3bdc eb3d 51bd 0bbe 587a 173d
00000260: 2952 95bd eb2f 143e 3945 d83e f2cc 1a3e
00000270: aaee 02bd 026d 833c a72a 723e fed9 153e
00000280: 5261 9ebd bfe5 c13d b329 12be cdc8 00bd
00000290: 3246 b7be e368 e63d dfc0 c43b ac5f 6c3e
000002a0: 06d5 323e 2c66 d93d 4d52 9ebd c80c 57bc
000002b0: 8fa4 123e ac13 27be ff43 07be 6c9d 6fbd
000002c0: ec62 d0bd bd77 86bb cfb5 0a3e cc98 a93e
000002d0: 15ef 49bd faf2 ab3d 9015 bcbe 8aa8 673d
000002e0: 4d91 c43e 73a7 5ebc 4f8a 4d3d 530c 313d
000002f0: bbd4 67be 2bd4 2b3e e47f 283e e570 ac3d
00000300: 9ff4 0b3e 3ca6 dcbd 5cab 00be 284a 03be
00000310: 652d 523e d29e d03d 7fdb 653c 5578 5bbd
00000320: 5fda 84bc 320e 083e ffad 013d c74e 0d3e
00000330: e684 873d b596 bebc 3cbf 5ebe f8ac b63d
00000340: 25fa 4fbc 4a6f 29be 1aaa bdbe ac8e b1bd
00000350: 1b1e 30bc dbd8 583e d729 9b3b 76f9 443e
00000360: e224 1c3d 03f7 7d3d 49cf 963d fea3 bfbe
00000370: 2ff5 ec3d 7f48 a43e 842f 8a3d a990 cfbd
00000380: 4134 c3bd bacf 273d b3c1 afbd 9c2c 4bbe
00000390: dfeb 64be fe31 a43e 4d1a 02be 6032 bdbe
000003a0: a889 393e a79c 0b3e b1c1 33be 7a5f 57be
000003b0: 4657 19be 002c a3be ef6b 103e cf42 883e
000003c0: 3d63 34be 84eb 533e 4749 013e f7fb b0be
000003d0: 5f4e 503e 7bb0 9abe 3fbd 4abc 8f12 51be
000003e0: 1635 2fbe dddf 67be a558 e5bd cfe1 593e
000003f0: ce13 393e 303c 6fbe ecd5 d2bc 09a3 453d

net.0.bias f4 [120]
-0.10355532 0.012666663 -0.1450943 0.65882534 0.66631025 -0.06798877 0.09841347 -0.29142463
-0.2621308 -0.09916614 0.4957824 0.62160826 -0.17072086 0.6243148 0.3230978 -0.28985927
0.6748935 0.21071744 0.5736014 -0.253189 -0.048450362 0.119569965 0.6495959 0.57830733
-0.40871912 0.44433984 -0.063124776 -0.17692481 -0.057800677 -0.28840476 0.20364308 -0.27214617
0.5782822 0.7466542 0.68096155 -0.1699124 0.47012833 0.5785053 -0.10831428 -0.08032331
-0.18250434 -0.046592146 -0.019616334 0.47681633 0.011717964 -0.29053968 0.5680581 0.16241316
-0.19975933 0.22422571 0.49354252 0.53387463 0.51785624 -0.15245087 0.06391357 -0.21234523
-0.22739965 0.509806 -0.05005359 -0.07313661 0.6452316 -0.01452823 0.56862307 -0.19138062
-0.11524554 -0.01994257 0.42159015 0.19779469 -0.04036781 0.3221459 0.1614733 0.47013474
0.19586141 0.46588847 0.65759915 -0.2865363 0.41681615 0.64932865 0.5831108 0.64060235
0.5406976 -0.11818468 -0.25957972 -0.06230578 -0.017270343 0.622458 0.45604867 0.5599553
0.39121097 -0.11121267 -0.10604744 0.5970152 0.30840674 0.5651284 -0.004102161 -0.0031058562
-0.15104751 -0.15165031 0.66290087 0.5524325 0.497055 0.5813689 0.6898313 0.25679845
0.04231247 0.67785066 0.24069555 -0.18289453 0.43606433 -0.19822566 -0.32320777 0.39029473
0.63883483 0.70235264 -0.2708448 -0.3123524 -0.2356781 -0.12332989 0.32773653 0.5839337
00000000: d014 d4bd d687 4f3c 9a93 14be c7a8 283f
00000010: 4f93 2a3f b23d 8bbd 008d c93d 9c35 95be
00000020: 0236 86be 9e17 cbbd 31d7 fd3e b821 1f3f
00000030: 73d1 2ebe 18d3 1f3f 136d a53e 6f68 94be
00000040: d2c5 2c3f 50c6 573e 8bd7 123f fda1 81be
00000050: e373 46bd 19e1 f43d eb4b 263f f30b 143f
00000060: a243 d1be 8380 e33e 9047 81bd c72b 35be
00000070: 67c0 6cbd caa9 93be d087 503e be56 8bbe
00000080: 4d0a 143f bb24 3f3f 7f53 2e3f 84fd 2dbe
00000090: a9b4 f03e ec18 143f e1d3 ddbd 8c80 a4bd
000000a0: 6be2 3abe 68d7 3ebd 6fb2 a0bc 4521 f43e
000000b0: b4fc 3f3c 9ec1 94be 416c 113f a34f 263e
000000c0: b68d 4cbe 6d9b 653e 9bb1 fc3e 02ac 083f
000000d0: 3a92 043f 151c 1cbe 1ee5 823d 0771 59be
000000e0: 74db 68be a582 023f fe04 4dbd a6c8 95bd
000000f0: e62d 253f d007 6ebc 4891 113f 48f9 43be
00000100: db05 ecbd 9a5e a3bc aada d73e b18a 4a3e
00000110: b758 25bd 4ff0 a43e 4259 253e 80b5 f03e
00000120: e58f 483e ef88 ee3e 6b58 283f e3b4 92be
00000130: ed68 d53e 673a 263f c046 153f 84fe 233f
00000140: 286b 0a3f cf0a f2bd a2e7 84be 5834 7fbd
00000150: 897a 8dbc 6859 1f3f 367f e93e 3b59 0f3f
00000160: ce4c c83e 78c3 e3bd 662f d9bd fdd5 183f
00000170: 7de7 9d3e 41ac 103f 6c6b 86bb 9f8b 4bbb
00000180: 33ac 1abe 384a 1bbe dfb3 293f 376c 0d3f
00000190: fe7d fe3e 98d4 143f c998 303f 167b 833e
000001a0: d74f 2d3d 9f87 2d3f e578 763e b448 3bbe
000001b0: d343 df3e abfb 4abe 7d7b a5be b6d4 c73e
000001c0: ae8a 233f 62cd 333f 2bac 8abe a7ec 9fbe
000001d0: 9a55 71be 6294 fcbd 15cd a73e ae7c 153f

net.2.weight f4 [30, 120]
0.09670534 0.124444544 0.03200401 -0.24149895 0.067514665 0.04922596 -0.038165297 0.07515257
0.04071559 0.0869412 -0.1337981 -0.12142652 0.08072737 -0.11406459 -0.16836467 0.08658241
-0.058869116 -0.081519306 -0.1933273 -0.1349988 0.051780652 -0.15800272 -0.24981944 -0.102830224
0.15765162 -0.00010648942 0.06631549 0.08673425 -0.02683499 -0.026249925 -0.07488051 -0.057832073
0.16829664 -0.047573775 -0.19843625 0.05125612 -0.21530685 -0.10844377 -0.15879841 -0.0029883853
0.23472174 -0.17316185 -0.24239445 -0.084849566 -0.045647275 0.08945342 -0.06508545 0.06290136
0.1340462 -0.16936204 -0.094984345 -0.10582662 -0.13838689 0.032257613 -0.022046002 0.08666721
-0.0028656456 0.017883638 0.0940461 -0.3471127 -0.03752684 0.08116905 0.009729269 0.010552588
0.10926489 0.019938992 -0.15289684 -0.030534828 -0.027781917 -0.09109342 -0.06950358 -0.17346746
-0.09715221 -0.23572469 -0.25502634 0.17760618 0.013507734 -0.24911064 -0.05697868 -0.38814834
0.04954206 -0.16285262 -0.08022909 -0.05662894 0.046912555 -0.14965692 0.051445942 -0.051961027
-0.090621725 0.035082586 0.007789606 -0.04007319 0.014784608 -0.177867 0.05654046 -0.012990758
0.042074565 0.1033803 -0.2742126 -0.12723882 -0.20859109 -0.03225764 -0.053935982 0.0029075244
-0.1527481 -0.20526299 -0.20556064 0.10640639 -0.122453354 -0.09985493 0.103599966 0.04028442
-0.027247744 0.08401566 0.14794748 -0.019164385 0.13615969 -0.19957153 -0.38613033 -0.11746132
0.13662411 -0.15110439 -0.17915016 0.3187282 0.33004078 0.21774231 0.2136527 0.05676075
-0.039386705 0.067051604 0.28012094 0.33681676 0.036363665 0.25256673 -0.12497808 -0.20289022
0.22377735 0.10435901 0.45187184 -0.114830405 -0.070629135 0.15215594 0.14108936 0.3070676
-0.25981924 0.1718058 -0.25305125 -0.10608458 -0.012666766 -0.15620923 0.0016541206 0.01206805
0.2910283 0.43490568 0.13809624 0.04418982 0.18158852 0.07849778 0.07924158 -0.2118381
0.08642875 0.056354064 -0.30969572 0.14791694 -0.32951954 -0.13009244 0.25970674 0.16567501
-0.10258395 -0.1070019 0.31160465 0.40124217 0.19816107 -0.10011708 -0.008826037 -0.019951226
-0.028045883 0.19077201 0.025953798 0.19317293 0.35106483 0.13617332 0.22515486 0.033723153
-0.109139964 0.008758401 0.3199277 0.13266528 -0.025867784 0.07099956 -0.20350653 0.2637628
0.15016453 0.15441795 0.32849583 0.0041892827 0.16426808 0.6271188 0.2176823 0.54142815
0.33242786 0.14898404 -0.002490929 0.17735775 -0.33223724 0.1371666 0.32336903 0.10527925
0.13180517 -0.04304791 -0.18188094 0.35056558 0.005481523 0.48360172 0.12643093 -0.0022080792
-0.0503845 -0.05594409 0.25318336 0.13831761 0.20763451 0.07194171 0.5923809 0.028873144
0.16530555 0.6549752 0.36462387 -0.0128289135 0.45183414 -0.07477868 0.0063791536 0.09158195
0.012646212 0.21571864 0.039822876 -0.118928984 -0.12400511 -0.07267808 -0.03176408 0.06408125
0.03568698 0.07649203 0.031236107 -0.102813415 -0.052316464 -0.06934532 0.06882671 0.20759715
0.19612433 0.088815294 -0.047699325 -0.19511928 0.033210114 -0.087783895 -0.14321919 0.18490535
00000000: 730d c63d c8dc fe3d a316 033d 804b 77be
00000010: 2145 8a3d 29a1 493d 3753 1cbd 97e9 993d
00000020: 64c5 263d 3a0e b23d 5e02 09be 78ae f8bd
00000030: 6454 a53d b29a e9bd ca67 2cbe 1e52 b13d
00000040: be20 71bd 98f3 a6bd 97f7 45be 203d 0abe
00000050: f317 543d 77cb 21be abd0 7fbe a798 d2bd
00000060: 6d6f 213e 1253 dfb8 6ad0 873d baa1 b13d
00000070: 0ed5 dbbc 150a d7bc f45a 99bd 53e1 6cbd
00000080: f455 2c3e b8dc 42bd df32 4bbe f0f1 513d
00000090: 6679 5cbe c417 debd 0d9c 22be c9d8 43bb
000000a0: e55a 703e 5751 31be 4036 78be 9cc5 adbd
000000b0: a3f8 3abd 5b33 b73d 854b 85bd 6ed2 803d
000000c0: 6843 093e 3e6d 2dbe 2787 c2bd a0bb d8bd
000000d0: 4bb5 0dbe 8f20 043d d199 b4bc 947e b13d
000000e0: 8ecd 3bbb b580 923c 3e9b c03d c1b8 b1be
000000f0: beb5 19bd f53b a63d 8367 1f3c c3e4 2c3c
00000100: 45c6 df3d 1957 a33c fd90 1cbe 2d24 fabc
00000110: e796 e3bc 308f babd e557 8ebd 74a1 31be
00000120: bdf7 c6bd d061 71be d092 82be 65de 353e
00000130: 8b4f 5d3c dc16 7fbe 7a62 69bd 61bb c6be
00000140: 9dec 4a3d d6c2 26be 264f a4bd bff3 67bd
00000150: 6127 403d aa3f 19be fbb8 523d 16d5 54bd
00000160: e297 b9bd c2b2 0f3d f43f ff3b c923 24bd
00000170: 243b 723c c422 36be f896 673d 30d7 54bc
00000180: 6156 2c3d 0db9 d33d 9865 8cbe e54a 02be
00000190: e798 55be 9620 04bd faeb 5cbd 2a8c 3e3b
000001a0: ff69 1cbe 7630 52be 7d7e 52be 98eb d93d
000001b0: d3c8 fabd be80 ccbd 382c d43d 4701 253d
000001c0: a936 dfbc 6710 ac3d 8b7f 173e a1fe 9cbc
000001d0: 726d 0b3e 7b5c 4cbe e0b2 c5be 8f8f f0bd
000001e0: 31e7 0b3e 1cbb 1abe 2473 37be 5830 a33e
000001f0: 1bfb a83e d7f7 5e3e c6c7 5a3e f67d 683d
00000200: f453 21bd 5a52 893d 036c 8f3e 3f73 ac3e
00000210: 11f2 143d 6d50 813e 82f4 ffbd 74c2 4fbe
00000220: e425 653e 2dba d53d bf5b e73e 342c ebbd
00000230: 02a6 90bd c4ce 1b3e bb79 103e f737 9d3e
00000240: 0707 85be dced 2f3e ef8f 81be df42 d9bd
00000250: 4488 4fbc 50f5 1fbe 14cf d83a 12b9 453c
00000260: a901 953e f5ab de3e 1a69 0d3e 6200 353d
00000270: 57f2 393e 72c3 a03d 6949 a23d 16ec 58be
00000280: 8e01 b13d 85d3 663d 7090 9ebe 8a77 173e
00000290: c9b6 a8be f436 05be 48f8 843e b6a6 293e
000002a0: 8917 d2bd d023 dbbd a58a 9f3e 9d6f cd3e
000002b0: bcea 4a3e 2f0a cdbd 159b 10bc c170 a3bc
000002c0: 7bc0 e5bc bd59 433e 0f9d d43c 20cf 453e
000002d0: c5be b33e 0571 0b3e ff8e 663e 4a21 0a3d
000002e0: c684 dfbd 657f 0f3c 90cd a33e 68d9 073e
000002f0: ade8 d3bc 3868 913d 0464 50be eb0b 873e
00000300: bbc4 193e bd1f 1e3e 9b30 a83e 4046 893b
00000310: e435 283e dc8a 203f 1ce8 5e3e 099b 0a3f
00000320: fc33 aa3e 468f 183e db3e 23bb 459d 353e
00000330: 001b aabe 6775 0c3e a090 a53e a69c d73d
00000340: eff7 063e 0153 30bd ff3e 3abe 557d b33e
00000350: 599e b33b a59a f73e 1c77 013e 6cb5 10bb
00000360: fa5f 4ebd a125 65bd 40a1 813e 22a3 0d3e
00000370: 249e 543e 2d56 933d 46a6 173f 5f87 ec3c
00000380: dc45 293e 74ac 273f fbaf ba3e 5d30 52bc
00000390: ce56 e73e 9125 99bd 3808 d13b 518f bb3d
000003a0: 0f32 4f3c 59e5 5c3e 501d 233d 0a91 f3bd
000003b0: 64f6 fdbd 3fd8 94bd 0d1b 02bd 083d 833d
000003c0: 832c 123d daa7 9c3d dde2 ff3c d78f d2bd
000003d0: ca49 56bd eb04 8ebd 05f5 8c3d 5994 543e
000003e0: d1d4 483e cbe4 b53d 5e60 43bd 59cd 47be
000003f0: 5407 083d 0bc8 b3bd 0da8 12be d457 3d3e

net.2.bias f4 [30]
-0.05378944 0.45240518 -0.18524846 -0.19044381 0.3557806 -0.09332586 -0.022755163 0.58035773
-0.09966247 0.5872679 -0.15151384 -0.14073737 -0.11149406 0.23354584 0.41379252 0.53594697
0.54141694 0.21044685 0.4048514 0.5735142 -0.053378835 0.5131275 0.43812826 0.12070472
0.09248664 0.56144744 0.49672922 -0.14134055 0.23126969 -0.20129286
00000000: 5152 5cbd a7a1 e73e c6b1 3dbe b403 43be
00000010: e028 b63e a121 bfbd 0969 babc 5392 143f
00000020: d61b ccbd 3057 163f 7226 1bbe 751d 10be
00000030: ff56 e4bd a426 6f3e 9ddc d33e d233 093f
00000040: 4d9a 0a3f 617f 573e af48 cf3e d4d1 123f
00000050: c4a3 5abd 535c 033f 5952 e03e 0934 f73d
00000060: a369 bd3d 05bb 0f3f 4b53 fe3e 94bb 10be
00000070: f6d1 6c3e b71f 4ebe

net.4.weight f4 [2, 30]
-0.10534041 0.388671 -0.016380113 -0.02914869 0.035865154 -0.0850749 -0.20734648 0.3751412
0.18531893 0.42120582 -0.054667015 -0.068751626 -0.25389132 0.10122591 0.47414756 0.34302527
0.5477379 -0.03358238 0.2910018 0.47220424 -0.21866256 0.4177409 0.45823994 -0.31101972
0.22873016 0.50077724 0.24377641 0.019953076 0.2620963 -0.079015814 -0.03874127 0.39376834
-0.2728097 -0.25330877 0.50011414 -0.026827091 0.17187285 0.31367812 -0.25832397 0.43244386
0.04597878 0.066510476 -0.022686215 0.43342775 -0.07950537 0.38378897 0.076988734 0.41704127
0.45260888 0.32398573 -0.086725615 0.23896445 0.39220586 0.3270056 -0.15868008 0.15045379
0.3348917 0.000274992 -0.12781873 -0.1851915
00000000: b6bc d7bd e3ff c63e 962f 86bc 3cc9 eebc
00000010: 57e7 123d c03b aebd a352 54be 8212 c03e
00000020: 3fc4 3d3e 4aa8 d73e 85ea 5fbd a7cd 8cbd
00000030: 0bfe 81be 884f cf3d 78c3 f23e 02a1 af3e
00000040: 8d38 0c3f ad8d 09bd 30fe 943e c1c4 f13e
00000050: 14e9 5fbe 23e2 d53e 6d9e ea3e fa3d 9fbe
00000060: 3d38 6a3e f032 003f 86a0 793e a274 a33c
00000070: 7c31 863e 0bd3 a1bd 2aaf 1ebd 019c c93e
00000080: b7ad 8bbe b0b1 81be 7b07 003f 7dc4 dbbc
00000090: 70ff 2f3e 6b9a a03e 0a43 84be 4869 dd3e
000000a0: 3f54 3c3d a536 883d 71d8 b9bc 3eea dd3e
000000b0: b6d3 a2bd fd7f c43e 45ac 9d3d 6f86 d53e
000000c0: 5abc e73e 75e1 a53e 339d b1bd 19b3 743e
000000d0: 35cf c83e 476d a73e 087d 22be 8f10 1a3e
000000e0: ed76 ab3e cd2c 9039 eae2 02be d7a2 3dbe

net.4.bias f4 [2]
0.30279666 0.41973603
00000000: 2a08 9b3e a4e7 d63e
